A2/part2/rhc_model_params.pt (torch, 14892 bytes, 8 tensors)

layers.0.weight f4 [20, 100]
-0.0015964269 0.0076650265 0.09241209 0.009334112 -0.051939335 -0.028720642 0.09147717 -0.03659271
-0.06000073 -0.0014604687 0.036073983 0.06846552 -0.0056174877 0.025546266 0.034252893 0.05669967
-0.014076591 -0.03702494 -0.05169035 -0.020453632 0.06913 -0.03745681 -0.04028083 -0.016661119
-0.09317714 -0.0651341 -0.035263766 -0.04464773 -0.09444213 0.06845178 0.05526923 -0.02602209
0.062218845 0.07582058 -0.068140626 0.04542127 0.050306298 -0.058469202 0.031888247 -0.01077447
0.010243691 0.014254773 0.08879411 -0.03980267 -0.0519343 -0.086389534 -0.066461526 -0.096828304
0.09626421 0.08886289 0.03496728 -0.04849664 -0.016398942 0.051252853 -0.08105433 0.056457367
0.040644873 -0.023794068 -0.0005331159 0.08866837 -0.091049634 0.00727706 0.0029618025 0.0878704
-0.0054727197 -0.036325015 0.014162279 0.088956706 -0.026892496 -0.054899085 0.05980437 0.081815384
-0.05105237 0.04715028 -0.03968631 0.008130598 -0.032568134 -0.0059414147 0.09886133 0.033888448
-0.031228257 0.067651205 0.07926537 0.012378764 -0.091587596 -0.0019760013 0.043857098 0.05914792
0.023497045 0.046858143 0.031562187 -0.09834518 -0.07432872 -0.07498213 0.086544074 0.054708578
0.06280619 -0.034517 0.043931175 0.09861394 -0.067462996 0.017462183 0.017335642 0.032156684
-0.005278492 0.078807525 0.062399436 -0.04871129 -0.056495477 0.048314523 -0.0633442 -0.09501179
0.0882833 -0.019726623 -0.053400483 0.0025188804 -0.004655099 0.09302419 -0.081891455 0.012091482
0.061400305 0.06307983 0.060934998 -0.032325756 -0.034325182 0.00629735 0.049474217 -0.024494316
0.017901206 -0.03809346 0.05800283 0.01809354 -0.076627664 0.017347872 0.05398581 -0.029518008
-0.0654397 0.05218903 -0.038146354 -0.009195292 0.01665696 0.087788284 -0.05311134 0.09085435
0.027925719 -0.03736266 -0.07907394 -0.07247319 0.07789828 -0.08401668 0.076498024 0.09065701
-0.037104644 0.07517286 -0.062127758 -0.01156007 0.023670912 -0.07350683 0.070645 -0.08130858
-0.039245773 -0.07789614 0.076737165 0.053821992 0.1356316 -0.09950528 -0.061567333 0.0997167
0.071222655 0.027052462 -0.0095781805 0.06800647 -0.06656261 0.052291285 0.06984164 0.033842
0.06919666 -0.011088848 -0.14692466 -0.079587 -0.087841704 -0.09367865 -0.07440921 -0.055441655
-0.04916594 0.00015192032 -0.081545345 0.089616634 0.007797456 0.0646803 0.007853997 -0.034052778
-0.09321898 0.0033173084 -0.09334437 -0.001239419 0.06290238 0.080114186 -0.016289651 0.007946265
-0.07280146 0.07228637 -0.039915513 -0.07706743 -0.018044388 0.090661004 0.06944996 0.0079248315
-0.027676512 -0.004405105 -0.08216987 -0.05697007 0.027866185 0.056023337 0.0030916692 -0.1287406
-0.007262385 0.013043868 -0.03611491 -0.007267654 -0.13709953 0.09849139 -0.12903915 0.032599103
0.06123221 0.02766869 -0.0425447 -0.025070215 -0.025828684 -0.005772424 -0.008442259 -0.011678207
-0.0683914 -0.04210962 0.009771383 0.06629201 0.091579914 0.05875628 -0.09373418 0.093617
0.09735348 -0.01204989 -0.038542222 0.022293283 0.073299244 -0.02484945 0.020245148 -0.05034442
-0.06936902 -0.026280511 0.00042983145 0.06896973 0.087002255 -0.060558748 -0.0068468214 -0.078130364
00000000: 333f d1ba e72a fb3b 8d42 bd3d 1aee 183c
00000010: 57be 54bd 8d47 ebbc 6258 bb3d 3de2 15bd
00000020: 53c3 75bd 336d bfba 50c2 133d a737 8c3d
00000030: e712 b8bb 6746 d13c c34c 0c3d ea3d 683d
00000040: 80a1 66bc 77a7 17bd 43b9 53bd 608e a7bc
00000050: 0894 8d3d 506c 19bd 83fd 24bd e67c 88bc
00000060: a8d3 bebd 0765 85bd bd70 10bd 8ae0 36bd
00000070: e06a c1bd 7230 8c3d fd61 623d 472c d5bc
00000080: 30d9 7e3d d247 9b3d 508d 8bbd a70b 3a3d
00000090: fa0d 4e3d 677d 6fbd 409d 023d 6787 30bc
000000a0: 27d5 273c da8c 693c b0d9 b53d 2008 23bd
000000b0: 10b9 54bd ffec b0bd fb1c 88bd eb4d c6bd
000000c0: 2c26 c53d bffd b53d da39 0f3d 6aa4 46bd
000000d0: 1357 86bc 83ee 513d d0ff a5bd d73f 673d
000000e0: 3d7b 263d c7eb c2bc cdc0 0bba c397 b53d
000000f0: 3b78 babd 6774 ee3b cd1a 423b 65f5 b33d
00000100: 8054 b3bb 8ac9 14bd e708 683c ef2e b63d
00000110: a74d dcbc dddd 60bd 6df5 743d d38e a73d
00000120: 4a1c 51bd a720 413d 1d8e 22bd 3336 053c
00000130: 2a66 05bd 33b0 c2bb cf77 ca3d 9dce 0a3d
00000140: 67d2 ffbc b78c 8a3d e255 a23d 4dd0 4a3c
00000150: 4792 bbbd cd7f 01bb 80a3 333d 1745 723d
00000160: e07c c03c 53ee 3f3d 5a47 013d 3369 c9bd
00000170: a839 98bd 3b90 99bd 053e b13d 1a16 603d
00000180: 88a0 803d b361 0dbd 2df1 333d 1bf6 c93d
00000190: 0a2a 8abd da0c 8f3c 7a03 8e3c bab6 033d
000001a0: 33f7 acbb d765 a13d 8d96 7f3d 7d85 47bd
000001b0: cd67 67bd 73e5 453d 9bba 81bd 8b95 c2bd
000001c0: e0cd b43d ba99 a1bc 77ba 5abd cd13 253b
000001d0: cd89 98bb 7783 be3d b5b6 a7bd 5a1b 463c
000001e0: e37e 7b3d ff2f 813d fa96 793d 0368 04bd
000001f0: 9098 0cbd 005a ce3b 7aa5 4a3d 4ea8 c8bc
00000200: 8da5 923c e307 1cbd 6094 6d3d e738 943c
00000210: f7ee 9cbd 201d 8e3c 3a20 5d3d c0cf f1bc
00000220: 4005 86bd 2ac4 553d 5a3f 1cbd daa7 16bc
00000230: 2d74 883c 58ca b33d 478b 59bd d811 ba3d
00000240: 7ac4 e43c 9709 19bd 85f1 a1bd d36c 94bd
00000250: 2289 9f3d f010 acbd ffaa 9c3d 62aa b93d
00000260: 0afb 17bd 3af4 993d ad79 7ebd 7366 3dbc
00000270: 80e9 c13c c08a 96bd 53ae 903d 1d85 a6bd
00000280: 2dc0 20bd 0388 9fbd 6028 9d3d 7374 5c3d
00000290: 03e3 0a3e 6dc9 cbbd 072e 7cbd 4538 cc3d
000002a0: 2fdd 913d 209d dd3c cded 1cbc fa46 8b3d
000002b0: fa51 88bd 632f 563d 2209 8f3d e99d 0a3d
000002c0: fab6 8d3d 00ae 35bc 6b73 16be 82fe a2bd
000002d0: 5ae6 b3bd 98da bfbd db63 98bd ca16 63bd
000002e0: 3a62 49bd cd4c 1f39 3f01 a7bd ed88 b73d
000002f0: cd81 ff3b 1b77 843d 0dae 003c ed7a 0bbd
00000300: 98e9 bebd 3367 593b 552b bfbd 0074 a2ba
00000310: f7d2 803d e812 a43d e071 85bc 0d31 023c
00000320: ef18 95bd e00a 943d 737e 23bd 87d5 9dbd
00000330: d3d1 93bc 7aac b93d c83b 8e3d 27d7 013c
00000340: dab9 e2bc b358 90bb ad48 a8bd 7359 69bd
00000350: a047 e43c ba78 653d 9a9d 4a3b 93d4 03be
00000360: 4df9 edbb f3b5 553c 3aed 13bd 8025 eebb
00000370: d263 0cbe dbb5 c93d d722 04be a386 053d
00000380: a0ce 7a3d 73a9 e23c 5a43 2ebd 0d60 cdbc
00000390: ad96 d3bc 9a26 bdbb 6751 0abc f355 3fbc
000003a0: ca10 8cbd 237b 2cbd 2718 203c 1bc4 873d
000003b0: 408e bb3d 6daa 703d b5f7 bfbd 45ba bf3d
000003c0: 4361 c73d e76c 45bc 73de 1dbd 67a0 b63c
000003d0: ea1d 963d 1391 cbbc 27d9 a53c f335 4ebd
000003e0: 5811 8ebd 3a4a d7bc 005b e139 0040 8d3d
000003f0: 3d2e b23d 730c 78bd 4d5b e0bb d002 a0bd

layers.0.bias f4 [20]
0.03748863 0.061216034 0.020942306 -0.04025637 -0.0788997 -0.04440812 0.09612604 -0.055808842
-0.03611089 -0.0078098415 0.053757716 -0.05744183 0.031909335 -0.07779031 -0.051666643 -0.047769427
0.040204655 -0.02762252 0.08533537 0.093133464
00000000: ad8d 193d aabd 7a3d 338f ab3c dde3 24bd
00000010: 2a96 a1bd 4ae5 35bd bbdd c43d d097 64bd
00000020: 03e9 13bd b3e9 ffbb 0d31 5c3d 2048 6bbd
00000030: 5db3 023d 8750 9fbd 67a0 53bd e0a9 43bd
00000040: a3ad 243d a048 e2bc 4fc4 ae3d c2bc be3d

layers.1.weight f4 [20, 20]
-0.12105162 0.122693986 0.0018107817 0.21536654 0.1668599 -0.2062183 -0.17861798 0.1668701
-0.062248014 0.20342529 0.21264878 0.16998285 -0.21210039 -0.08580094 -0.12003419 0.07255773
-0.1307087 0.006775588 0.021220047 0.0030004801 0.19869801 -0.12725565 -0.21022305 -0.06283535
0.1461055 0.18744306 0.20726024 0.045041375 -0.06203128 0.060773343 0.18455029 0.06322901
-0.018319927 0.18046597 -0.19361417 -0.08677951 0.11908968 0.09957884 0.20426048 -0.09280049
-0.19161727 -0.1653415 -0.2172939 -0.1297061 -0.110549234 0.18225935 -0.042723317 -0.19662881
0.15374902 0.11028139 -0.070708975 -0.197884 -0.06109469 -0.16759552 0.14699274 -0.04233035
-0.0019747836 0.21481335 -0.06942474 0.14580795 -0.21071875 0.22587703 0.11275184 -0.13212615
0.0016085567 0.039948687 0.15111145 -0.04403599 0.14525229 -0.07330991 -0.0349818 -0.057173606
-0.039663874 -0.089562826 -0.052588087 -0.068782285 0.12609853 -0.10541859 -0.10608 -0.0503919
0.10579214 -0.19906884 0.23016454 -0.002804082 -0.18915534 -0.075966164 0.009319633 0.1218328
0.0043684663 -0.11786116 0.03417239 0.1370711 0.05977284 0.11354475 -0.011421356 0.18167166
-0.16041034 0.017865842 -0.12941307 0.17701073 -0.00981133 0.075332865 0.087913774 -0.201804
-0.03260563 -0.024485122 0.1779026 -0.18617843 -0.17465506 0.079125345 -0.16442856 0.1758565
0.26579538 0.16514577 0.19441175 0.04378561 -0.008167263 0.10384452 0.03214208 -0.012483114
-0.029956292 -0.21752515 -0.090388015 0.220845 0.032938134 0.30291605 0.06302133 -0.1207552
0.15245536 0.21206245 0.23284435 0.19198388 -0.0016974811 0.0070389984 0.0740191 0.06810786
-0.21858765 -0.19644861 0.14089867 0.16175148 0.19008227 0.04322722 0.011546496 0.0050299577
-0.007670779 -0.08493249 -0.16829932 0.14892977 0.16623534 0.117198385 0.020739652 0.16495942
0.1497143 -0.20351227 0.16629651 -0.19220495 0.13602214 0.064574204 -0.19196337 0.19913416
0.20063207 -0.17353539 0.19610913 -0.21923062 0.18264396 0.048074774 0.13782689 -0.1498007
0.024688335 0.1425896 -0.16775605 -0.009370312 -0.022856835 -0.034405787 0.079658814 -0.09015396
0.022912806 0.03629671 0.19933544 0.08736445 -0.00032914837 0.20035255 0.046370704 -0.15549591
-0.18601911 -0.0019603628 -0.19386527 -0.22045901 -0.0036785556 0.014276238 0.22135428 0.17292136
-0.20304883 -0.20975274 -0.08654764 0.1575145 -0.10433091 0.1899993 0.11965202 0.19409947
0.11655717 -0.134579 -0.13087337 0.07096575 0.15418272 0.16559243 0.14687032 -0.051583022
-0.10743403 0.2552324 -0.13781342 -0.1731478 0.03570151 -0.04326989 0.24006109 -0.0467814
0.051415414 -0.13030842 0.115262836 -0.16482523 0.1894012 -0.013025031 0.18048084 -0.17104283
-0.10514121 -0.16211784 -0.1408614 0.011915933 0.0819931 -0.14873287 -0.17575479 -0.19189657
0.134636 0.07728221 0.097448006 0.13884823 -0.1340691 0.16948666 -0.17725375 -0.104399666
0.25981188 0.11828777 -0.049971163 0.028246092 0.065107934 0.03622117 0.14474444 -0.06043887
0.15603867 0.09257743 -0.12372391 0.038967855 0.11563632 0.03348921 0.048404165 -0.044143226
00000000: e9e9 f7bd fc46 fb3d c057 ed3a 0c89 5c3e
00000010: 52dd 2a3e e42a 53be a2e7 36be ffdf 2a3e
00000020: c6f7 7ebd b84e 503e 9ac0 593e fc0f 2e3e
00000030: d830 59be 67b8 afbd 7cd4 f5bd 2699 943d
00000040: 80d8 05be c005 de3b aad5 ad3c b4a3 443b
00000050: 7e77 4b3e 4e4f 02be b644 57be d2af 80bd
00000060: ae9c 153e 13f1 3f3e 073c 543e 4e7d 383d
00000070: 8314 7ebd 78ed 783d c0fa 3c3e 367e 813d
00000080: ac13 96bc 12cc 383e cb42 46be 75b9 b1bd
00000090: 4ae5 f33d feef cb3d a929 513e 2f0e bebd
000000a0: 5137 44be 484f 29be 4b82 5ebe add1 04be
000000b0: a367 e2bd 32a2 3a3e a5fe 2ebd 1059 49be
000000c0: 6270 1d3e 36db e13d decf 90bd 1aa2 4abe
000000d0: 6d3e 7abd 299e 2bbe 4485 163e 9762 2dbd
000000e0: 5f6b 01bb 08f8 5b3e 8f2e 8ebd ae4e 153e
000000f0: a8c6 57be 4f4c 673e 70ea e63d 144c 07be
00000100: 35d6 d23a 3ca1 233d f6bc 1a3e 155f 34bd
00000110: 04bd 143e 8223 96bd 1349 0fbd df2e 6abd
00000120: 9676 22bd b76c b7bd 9b66 57bd badd 8cbd
00000130: f91f 013e b4e5 d7bd 7940 d9bd bd67 4ebd
00000140: 8da9 d83d b4d8 4bbe 41b0 6b3e b0c4 37bb
00000150: f0b1 41be 2694 9bbd 60b1 183c 7a83 f93d
00000160: 5a25 8f3b 3161 f1bd 59f8 0b3d 5e5c 0c3e
00000170: 5ed4 743d 268a e83d a420 3bbc 2308 3a3e
00000180: 9c42 24be 635b 923c dc84 04be 4d42 353e
00000190: b3bf 20bc 1e48 9a3d 230c b43d b5a5 4ebe
000001a0: 7b8d 05bd 0695 c8bc 192c 363e 8fa5 3ebe
000001b0: c7d8 32be 780c a23d f65f 28be ba13 343e
000001c0: 5516 883e f91b 293e e013 473e 8a58 333d
000001d0: fccf 05bc 70ac d43d 6aa7 033d fa85 4cbc
000001e0: e666 f5bc eabe 5ebe 5a1d b9bd 3125 623e
000001f0: 23ea 063d d017 9b3e 5411 813d 814e f7bd
00000200: 421d 1c3e e626 593e c06e 6e3e 6c97 443e
00000210: 047e deba 66a7 e63b 5397 973d 227c 8b3d
00000220: 71d5 5fbe d329 49be be47 103e 2ea2 253e
00000230: eda4 423e 070f 313d 842d 3d3c 58d2 a43b
00000240: 285b fbbb 16f1 adbd a856 2cbe 0c81 183e
00000250: 9939 2a3e b505 f03d 34e6 a93c 1feb 283e
00000260: b54e 193e 8565 50be a249 2a3e 60d1 44be
00000270: 6349 0b3e 7b3f 843d 0c92 44be d3e9 4b3e
00000280: 7e72 4d3e 43b3 31be d5d0 483e fe7d 60be
00000290: 0507 3b3e 0eea 443d 7e22 0d3e 5b65 19be
000002a0: 313f ca3c 0203 123e 3ec8 2bbe f085 19bc
000002b0: 423e bbbc 15ed 0cbd 2924 a33d a4a2 b8bd
000002c0: a3b3 bb3c dcab 143d 971e 4c3e 22ec b23d
000002d0: 8c91 acb9 3829 4d3e 35ef 3d3d 523a 1fbe
000002e0: cb7b 3ebe 6e79 00bb 9e84 46be 02c0 61be
000002f0: ec13 71bb e2e6 693c b2aa 623e 4c12 313e
00000300: 08ec 4fbe 6cc9 56be e43f b1bd 7b4b 213e
00000310: 72ab d5bd 2d8f 423e 1e0c f53d 03c2 463e
00000320: 87b5 ee3d 14cf 09be ab03 06be 7e56 913d
00000330: 13e2 1d3e 1091 293e 2c65 163e b848 53bd
00000340: 5f06 dcbd d2ad 823e f61e 0dbe a84d 31be
00000350: bf3b 123d c53b 31bd 93d2 753e da9d 3fbd
00000360: f898 523d 926f 05be ec0e ec3d f2c7 28be
00000370: 63f2 413e f166 55bc f8cf 383e da25 2fbe
00000380: 4654 d7bd 3802 26be f93d 10be 0c3b 433c
00000390: 00ec a73d 6e4d 18be 10f9 33be 8980 44be
000003a0: 05de 093e 2346 9e3d d292 c73d 3b2e 0e3e
000003b0: 6949 09be e98d 2d3e 0282 35be 7ecf d5bd
000003c0: 1006 853e dc40 f23d 90ae 4cbd 5964 e73c
000003d0: 4f57 853d a65c 143d e337 143e c08e 77bd
000003e0: 9ac8 1f3e 3c99 bd3d f662 fdbd c29c 1f3d
000003f0: bcd2 ec3d fb2b 093d 7243 463d 87cf 34bd

layers.1.bias f4 [20]
-0.017281089 0.184784 0.03658196 0.15953644 0.13229562 0.058277123 -0.08934286 0.046172176
0.0005584967 -0.09092711 0.1582999 -0.21207765 0.091910124 0.17990829 0.17458043 0.16041397
0.17765144 -0.03690359 -0.08244602 0.18531285
00000000: 1291 8dbc 0438 3d3e f7d6 153d 855d 233e
00000010: 8178 073e feb3 6e3d 64f9 b6bd 091f 3d3d
00000020: 1468 123a fe37 babd 5e19 223e e22a 59be
00000030: 603b bc3d e139 383e 36c5 323e 8f43 243e
00000040: 42ea 353e 3828 17bd 75d9 a8bd a7c2 3d3e

layers.2.weight f4 [20, 20]
-0.09664754 0.13170853 0.0012716576 0.01027661 0.090216406 -0.028531998 -0.068067074 0.10315395
-0.09364773 -0.0235109 -0.16112705 -0.11124633 -0.085520014 0.039514605 -0.09328776 0.014133735
-0.16213831 0.22951666 -0.21783757 0.120307654 -0.16911955 -0.01068376 0.015673865 -0.22138444
-0.064940214 -0.1581569 -0.12508415 -0.15563472 0.03475828 0.055734456 -0.120701194 -0.09951684
-0.15226655 -0.1285297 -0.075091004 0.056178413 -0.03574315 0.24802744 -0.12077671 0.12475814
0.1827414 -0.1689201 -0.16595438 -0.11454131 -0.11850365 0.2153305 0.08221766 0.09380102
0.05510551 -0.27242345 0.057618693 0.15525205 0.1562254 -0.06897767 -0.16176249 0.12935193
-0.16061918 0.09562178 0.00403444 -0.15571368 0.025965584 0.02599867 0.21863921 -0.14432713
0.02420632 0.038705137 0.080199674 0.20630808 -0.03317199 -0.0507341 0.026542585 0.054292288
-0.1515176 -0.25953498 -0.042371776 -0.12376606 -0.17444606 0.060719453 -0.10568963 -0.2090105
-0.10584134 0.042762045 0.10020232 0.028886043 0.03836879 -0.18487412 -0.1978858 0.300865
0.15540679 -0.03400736 0.1794642 0.21521313 0.18693376 0.10490237 -0.05644783 0.14401057
-0.18731765 0.11147681 0.19774053 0.007119473 -0.11779935 -0.21263622 -0.07232686 -0.13023597
-0.14609574 0.016085062 -0.08622928 0.14562984 0.022497643 0.10454179 -0.03758068 0.042713188
-0.103167914 -0.15971543 0.086986735 0.19053745 0.095466174 -0.07568549 -0.13781273 -0.19166385
0.07273044 -0.03559974 0.2218624 0.15887967 0.06605708 0.13123485 0.18657602 0.074785
-0.14660186 -0.19556805 0.12847713 -0.055886153 0.15969816 -0.21568859 0.060772337 0.05714427
0.059438754 0.17121848 -0.037436523 0.046287224 -0.22272205 0.17183875 -0.14824776 -0.03278551
0.10001067 -0.043224294 -0.17404082 -0.16336627 0.16860661 0.244071 0.0043344 -0.108451195
0.21903461 -0.008989392 -0.11669877 0.17654356 -0.1520812 0.003765694 0.0521339 0.08662152
-0.073409736 0.20003447 -0.087315 0.1775949 0.14263275 0.027045637 0.09498231 -0.07150008
0.18044738 0.10965857 -0.21411581 -0.050757278 -0.08621822 0.21165968 0.14232057 -0.12645996
-0.07410167 0.12327958 0.115014374 0.14671007 0.11179841 -0.11120833 -0.04302738 0.14692093
-0.048834633 0.023236867 0.025111403 -0.079875916 -0.103251785 -0.17300786 -0.10270864 -0.12223243
-0.11579095 0.112454094 -0.07765628 -0.020958925 -0.013167455 -0.08747214 0.026037004 -0.16683598
0.04216887 0.012132455 0.19976147 0.10934238 -0.21113226 -0.101096615 0.20802946 -0.2085389
0.13408166 -0.06697315 0.058882188 0.022522908 0.07651793 0.06322029 0.12171045 -0.101938784
-0.12633975 -0.050238524 -0.011057818 -0.13757722 0.026317475 0.03021637 -0.012891245 0.00888687
0.13808022 -0.17138691 -0.21379216 -0.08761459 0.09136768 0.10147846 -0.11043256 -0.17942382
-0.020481836 0.21782057 -0.0734599 -0.15673007 0.007949781 0.007454379 0.20299368 -0.10724247
-0.21656607 0.20772216 -0.16020863 -0.058963515 0.19894834 0.016563322 -0.023598995 -0.14623901
0.026147198 -0.009395976 0.055800967 0.10769978 0.046271197 -0.16908666 -0.21506488 -0.1201805
00000000: 25ef c5bd 9ade 063e c0ad a63a 3a5f 283c
00000010: 61c3 b83d f0bb e9bc c066 8bbd 6142 d33d
00000020: 62ca bfbd ee99 c0bc 7dfe 24be 1ed5 e3bd
00000030: 1e25 afbd 11da 213d a70d bfbd 2e91 673c
00000040: 9607 26be 6a06 6b3e d010 5fbe dc63 f63d
00000050: ad2d 2dbe f00a 2fbc 7a66 803c 9ab2 62be
00000060: 60ff 84bd e2f3 21be 0f16 00be b55e 1fbe
00000070: b35e 0e3d d049 643d 3032 f7bd 7ccf cbbd
00000080: c3eb 1bbe 4a9d 03be 50c9 99bd 561b 663d
00000090: 6967 12bd e8fa 7d3e c859 f7bd 3281 ff3d
000000a0: 9020 3b3e 64f9 2cbe f2ef 29be a294 eabd
000000b0: 0bb2 f2bd 997f 5c3e bc61 a83d c01a c03d
000000c0: 51b6 613d 167b 8bbe 9401 6c3d 65fa 1e3e
000000d0: 8df9 1f3e 2a44 8dbd 11a5 25be d574 043e
000000e0: 5b79 24be 5ad5 c33d 5633 843b 6873 1fbe
000000f0: c7b5 d43c 2afb d43c f5e2 5f3e 7eca 13be
00000100: 554c c63c 4789 1e3d ba3f a43d 6d42 533e
00000110: 5adf 07bd 8fce 4fbd d66f d93c 9761 5e3d
00000120: 6e27 1bbe c5e1 84be 078e 2dbd 0f79 fdbd
00000130: fda1 32be f6b4 783d ce73 d8bd d906 56be
00000140: 58c3 d8bd 4127 2f3d e036 cd3d 6ca2 ec3c
00000150: 9828 1d3d a44f 3dbe 93a2 4abe fa0a 9a3e
00000160: f522 1f3e 4d4b 0bbd 77c5 373e d560 5c3e
00000170: 906b 3f3e 0ed7 d63d d735 67bd 8277 133e
00000180: 33d0 3fbe f44d e43d 7e7c 4a3e 784a e93b
00000190: c940 f1bd 4fbd 59be 1b20 94bd 945c 05be
000001a0: 1f9a 15be d2c4 833c fa98 b0bd fd1f 153e
000001b0: fa4c b83c 021a d63d 33ee 19bd 06f4 2e3d
000001c0: b349 d3bd 718c 23be 1a26 b23d 401c 433e
000001d0: c583 c33d ff00 9bbd c81e 0dbe 8743 44be
000001e0: b2f3 943d 08d1 11bd e62f 633e 5ab1 223e
000001f0: ef48 873d 6e62 063e c90d 3f3e e128 993d
00000200: cc1e 16be fe42 48be 828f 033e e1e8 64bd
00000210: ea87 233e 78dd 5cbe 6aec 783d 1c10 6a3d
00000220: 0d76 733d e653 2f3e 0a57 19bd ac97 3d3d
00000230: 4011 64be 7ff6 2f3e 43ce 17be 194a 06bd
00000240: 65d2 cc3d f50b 31bd c237 32be 7d49 27be
00000250: 36a7 2c3e c0ed 793e 9507 8e3b a91b debd
00000260: 9c4a 603e 3e48 13bc c4ff eebd d6c7 343e
00000270: 2dbb 1bbe ddc9 763b 5b8a 553d a066 b13d
00000280: d857 96bd d6d5 4c3e 35d2 b2bd 70db 353e
00000290: 520e 123e d08e dd3c 1686 c23d a26e 92bd
000002a0: 33c7 383e ac94 e03d 2d41 5bbe dde6 4fbd
000002b0: 2e93 b0bd 51bd 583e 7cbc 113e b87e 01be
000002c0: 9ec2 97bd 017a fc3d a88c eb3d 2a3b 163e
000002d0: 91f6 e43d 31c1 e3bd 7a3d 30bd 7172 163e
000002e0: d306 48bd 3e5b be3c 6eb6 cd3c fc95 a3bd
000002f0: ac75 d3bd f928 31be e858 d2bd ff54 fabd
00000300: ce23 edbd 554e e63d 410a 9fbd 0db2 abbc
00000310: 4fbc 57bc 9824 b3bd 8e4b d53c 0dd7 2abe
00000320: 44b9 2c3d 34c7 463c 458e 4c3e e6ee df3d
00000330: 0e33 58be be0b cfbd ad05 553e 398b 55be
00000340: b44c 093e 3829 89bd 732e 713d f681 b83c
00000350: 6fb5 9c3d a479 813d 5443 f93d 48c5 d0bd
00000360: 355f 01be e9c6 4dbd da2b 35bc 0be1 0cbe
00000370: bf97 d73c 5288 f73c cd35 53bc 3c9a 113c
00000380: e764 0d3e 0d80 2fbe 55ec 5abe 476f b3bd
00000390: fa1e bb3d f0d3 cf3d 772a e2bd e1ba 37be
000003a0: 86c9 a7bc 5b0c 5f3e 2572 96bd d97d 20be
000003b0: cc3f 023c dd43 f43b 93dd 4f3e f1a1 dbbd
000003c0: 7fc3 5dbe 1eb5 543e bb0d 24be ba83 71bd
000003d0: 1db9 4b3e ceaf 873c ae52 c1bc aebf 15be
000003e0: a632 d63c 94f1 19bc 8e8f 643d b491 dc3d
000003f0: de86 3d3d 0e25 2dbe f839 5cbe 3221 f6bd

layers.2.bias f4 [20]
-0.20236859 -0.124244 -0.19867162 -0.19944915 -0.084273316 0.12961316 0.09976757 0.11119212
0.17474177 -0.025365537 0.08471511 -0.09397661 0.13543008 0.16184533 0.13727324 -0.035960633
0.17708047 -0.027956234 0.101733506 0.10402123
00000000: b639 4fbe a373 febd 9370 4bbe 663c 4cbe
00000010: 7d97 acbd 50b9 043e f152 cc3d b2b8 e33d
00000020: 82ef 323e 63cb cfbc 1e7f ad3d cf76 c0bd
00000030: 2fae 0a3e c8ba 253e 5b91 0c3e 754b 13bd
00000040: 9554 353e 7904 e5bc a859 d03d 1509 d53d

layers.3.weight f4 [2, 20]
0.08150163 0.12160142 0.09221573 0.22164614 -0.026947225 0.12369242 0.3815363 0.04051403
0.25024942 -0.036570355 0.07017252 0.24358714 0.19309558 -0.03136542 0.033272542 0.303558
0.28980497 0.05725907 0.111788735 0.30203795 -0.119890764 0.10387105 0.028488878 -0.033123698
-0.17621997 0.06779452 -0.010434173 -0.28541332 -0.31873977 0.08242831 -0.33123642 0.056331124
-0.28440046 -0.31399032 -0.32932496 -0.27774864 -0.15789306 -0.14357324 -0.14439054 0.049774136
00000000: 54ea a63d 2a0a f93d 9adb bc3d 35f7 623e
00000010: 6dc0 dcbc 7452 fd3d ba58 c33e 0af2 253d
00000020: b120 803e ccca 15bd 9cb6 8f3d e86e 793e
00000030: d9ba 453e 0779 00bd ca48 083d f46b 9b3e
00000040: 5161 943e 7d88 6a3d 7ef1 e43d b8a4 9a3e
00000050: 4a89 f5bd 58ba d43d 8261 e93c b7ac 07bd
00000060: 0273 34be dad7 8a3d 18f4 2abc b221 92be
00000070: dc31 a3be 2cd0 a83d d297 a9be 77bb 663d
00000080: f09c 91be 57c3 a0be 489d a8be 1235 8ebe
00000090: b8ae 21be dd04 13be 1ddb 13be f7df 4b3d

layers.3.bias f4 [2]
0.13425146 0.07117551
00000000: 3779 093e 77c4 913d
