A2/part2/rhc_model_params.pt (torch, 25004 bytes, 8 tensors)

layers.0.weight f4 [32, 100]
00000000: 98b2 adbb c0ea 433e 20d4 953c 9c78 51be
00000010: 6e6d 30be 91d0 53be 61f4 2d3e f37a 5bbd
00000020: 6b0c 57bd 0e61 f13c 0a69 123d 7039 593d
00000030: 6c6f 7ebc f3bc 08be 03d1 063d 034e 05bd
00000040: e069 753b 80c4 0bbc 6610 18be ed5b 7fbd
00000050: 2d09 36be 3844 0d3e 1076 09be 8eb5 e0bc
00000060: 38eb d7bd d0e4 ddbd 6e59 1c3e 1830 8c3d
00000070: 5f20 05bd 0068 bab9 2d69 323e 2ef3 8bbd
00000080: 9818 e6bb efb5 02bd 2398 0f3d 180a e53b
00000090: 22e5 bbbd 5a21 823c 833a 293e 845f f73d
000000a0: fef0 c73c 188a 9bbd e7a1 083e e3d1 133e
000000b0: 940f c0bd e3d0 3cbd 1260 c2bc 0713 043e
000000c0: 8852 b33c b494 653c 80ed febd ebe1 073e
000000d0: 1266 aa3d 4d0b 4cbd b09b 0b3d 6b40 123d
000000e0: 069a 8cbe 8f10 0ebe 70f8 1cbe b800 44be
000000f0: c042 8bbd b478 b5bd 1d4b 103d 3f63 24bd
00000100: f5e1 80bd ab21 073d e85a 223e 0ef4 f5bd
00000110: 7338 9bbe 2eb3 f1bd 06b6 9d3d 5d1c 28be
00000120: 5abc eabd 4382 43be 4a9c 4dbd 9715 38bd
00000130: 9e36 fabc 0a08 b4bd ac2e ca3d acf9 af3d
00000140: be02 e73d 142c ff3d e0b1 5f3d b519 19be
00000150: 069b fdbc 239c 06be 460c ab3c b41b 033c
00000160: 5a06 4bbd 60de 9b3d ca01 7d3d 0b5c 01be
00000170: 1a45 81be 406d 80bd 1cc6 e0bd 5203 8a3d
00000180: 3b9b 82be d8cd 0a3e 4b6d 48be 2dff 97be
00000190: 5dce 77bd a0ec 21bb cdd2 e4bd 2e40 0abe
000001a0: fa78 d3bc 7427 05bc 11dc 683d b800 52bc
000001b0: 80e3 4b3d 66e9 5f3e ad7e 69bd c0de 183c
000001c0: 080c c2bd 6e4a b73d 740a 0abe 0bc3 143e
000001d0: 1c93 5fbc c0ad cb3d c049 883d be10 e23c
000001e0: 8098 653c 130b 473d bded 4b3e bdfb 5cbe
000001f0: c306 583d 883a 04be 807b 3d3c 4c7b b7bd
00000200: 5f98 08be 8041 c23b 44de 1a3e cad9 283e
00000210: 6354 103d 000b c3bc 0eca cebc f95f 50bd
00000220: 80b6 b03c 6db1 aabd 06c2 31be f436 c73c
00000230: aaaa e43d fd42 0cbe cb74 913d 6bda 2f3e
00000240: 74ab 7c3e 761e f1bc d3e0 74bd 60b6 17bb
00000250: a0f2 e2bc 0367 643d 0068 e63b 288e 343c
00000260: 6431 c73e 9a7c 37bd 52d6 83bd 337c 023d
00000270: df9d 42be 8e00 493e 0f42 ad3d 76ce 213d
00000280: f05e 7fbd f3fb 3bbd a8bf 043e 6a81 0abe
00000290: 80af 11bc 934d 4abe 00ab 87bb 80c1 113a
000002a0: 9685 dcbd eee2 9cbc 0127 2dbe 2b9d 0b3d
000002b0: a67e cd3c 7632 873c cf14 003e adbc 423d
000002c0: 1a72 9f3d cdf1 33bd fa0c 90bd 75ce 043e
000002d0: 50ad 5e3c e7dd 5bbe 5c8a 953d b6e1 da3d
000002e0: 7325 683c 78a5 943d d364 a0bc 03dc 1ebd
000002f0: 37eb 46bd e015 62bd 7637 f63d ce86 813d
00000300: 186e 21bc 1c52 663c e2a7 0a3e 8acf 203e
00000310: 835e 11be f4b6 8bbd dbac 91bd 003b 403b
00000320: eb26 613d c888 d2bc edde 0f3d 9ef7 813d
00000330: 6b57 143e 829c bebc d542 193e 334d a6bd
00000340: e6e6 31be aaaf 0b3e 00f3 0a3c 88d3 e83d
00000350: 842b 053e 0f03 253e b978 5bbe da6f fbbd
00000360: f367 b83c d134 ab3e b873 27be 40eb c5bd
00000370: d0f0 44bb b480 76bc 75b7 863d 7f32 603e
00000380: 15ce 08be 48c3 893c 683a 92bd a220 ffbc
00000390: 05f0 d93d aa74 36bd be50 973c 398e 41bd
000003a0: 3df1 cebd 2eb7 75be 9ca4 b2bd dff5 593d
000003b0: 0038 1fbe 07ab 6dbe 8801 38bc 00b6 a3ba
000003c0: b87a c5bc 98bc 81bd fb22 bdbd a70b 513d
000003d0: 5a73 3cbd 37c2 00be 1774 4cbd 7708 0c3e
000003e0: 31eb 293e 36f2 053d c0cc 2c3d c36c b83d
000003f0: a465 a2bd e262 163e 0793 60bd 026d c7bd
-0.005300831 0.19132519 0.018289626 -0.20456165 -0.17229244 -0.2068503 0.16987754 -0.05358405
-0.052502077 0.029465225 0.035744704 0.053033292 -0.015529495 -0.13353328 0.032914173 -0.0325451
0.003744714 -0.008530736 -0.14850006 -0.062343527 -0.17776938 0.13795555 -0.13423944 -0.027430322
-0.10542911 -0.10834658 0.1526849 0.06845111 -0.032501575 -0.0003555417 0.17422934 -0.06833492
-0.007021975 -0.031911787 0.0350572 0.0069897287 -0.09174563 0.015885044 0.16526227 0.12078765
0.024406906 -0.07594699 0.13343011 0.14435534 -0.09377971 -0.046097647 -0.02372745 0.12897883
0.02188994 0.014012504 -0.12447643 0.13269775 0.083202496 -0.049815465 0.034084022 0.035705965
-0.2746126 -0.13873504 -0.15329146 -0.19140899 -0.06799841 -0.08860913 0.035227884 -0.04013371
-0.06293098 0.032991093 0.1585499 -0.1200944 -0.30316505 -0.11801754 0.07700734 -0.1641707
-0.114617065 -0.1909266 -0.050197877 -0.044942465 -0.030543622 -0.08790596 0.09872183 0.08592543
0.1127982 0.12459579 0.054612994 -0.14951213 -0.03095771 -0.13145499 0.020879876 0.00800221
-0.049566604 0.07610774 0.061769284 -0.12632768 -0.25248033 -0.06270838 -0.10975286 0.067389145
-0.25509056 0.13555086 -0.19572942 -0.2968687 -0.060499538 -0.002470769 -0.111730196 -0.13501045
-0.025814522 -0.008127082 0.056850497 -0.012817554 0.049777508 0.21866378 -0.057005573 0.0093304515
-0.09474951 0.08949743 -0.1348055 0.14527528 -0.013645913 0.099452496 0.06654692 0.027595874
0.01401341 0.048594546 0.19914909 -0.21580406 0.052740823 -0.12912953 0.011565089 -0.08959064
-0.13339375 0.0059282184 0.1512385 0.1648933 0.035236727 -0.023808956 -0.025242832 -0.050872777
0.021571398 -0.083346225 -0.1735917 0.024318196 0.11165364 -0.13697429 0.071023546 0.17173164
0.24674779 -0.02943347 -0.05978472 -0.0023149475 -0.027703583 0.055762302 0.0070314407 0.011020221
0.3890487 -0.044796564 -0.06437363 0.031856727 -0.19005536 0.19629118 0.08459865 0.039503537
-0.0623464 -0.045894574 0.12963736 -0.1352593 -0.00889194 -0.19756155 -0.004140258 0.0005560145
-0.10767667 -0.019151177 -0.1690941 0.034085434 0.025084805 0.016503554 0.12507938 0.047543216
0.07785435 -0.04393177 -0.07033725 0.12969382 0.013591126 -0.21471368 0.073017806 0.10687582
0.014169085 0.07258123 -0.019579327 -0.03878404 -0.048564162 -0.055196643 0.12022297 0.0632454
-0.009852909 0.014057662 0.13540605 0.1570417 -0.1419621 -0.06822005 -0.07113048 0.0029332042
0.054968756 -0.025699988 0.035124708 0.06346057 0.14486472 -0.023267988 0.149669 -0.08120193
-0.17373237 0.1364123 0.008480787 0.113684714 0.13004881 0.16114448 -0.21432771 -0.12277193
0.022510504 0.33438733 -0.16352737 -0.09664011 -0.0030050762 -0.015045334 0.065779604 0.21894263
-0.13359864 0.01681675 -0.07140046 -0.03114349 0.10641483 -0.044544853 0.018471118 -0.047254775
-0.10104606 -0.23995659 -0.08722803 0.053212997 -0.15548706 -0.23209773 -0.011230834 -0.0012490153
-0.024106368 -0.063347995 -0.092351876 0.051036503 -0.046008445 -0.12574087 -0.0499154 0.13675104
0.16593625 0.032701693 0.042187452 0.0900512 -0.07929543 0.14686158 -0.054827716 -0.097375885

layers.0.bias f4 [32]
00000000: d361 923d 63b1 02bd b24f bb3d b2c4 94bd
00000010: 93be 97bc 8241 c4bd 3019 89bd cd82 843a
00000020: ba8e b9bd 8d33 bfbc fb04 893d 9009 8f3d
00000030: ba81 c53c 40e6 223c 9a33 d13a 1d2a 133d
00000040: 6742 58ba d28b a6bd e719 14bc 732c 80bc
00000050: 3a4b 34bd 4b23 a0bd cd24 89bb fded 0d3d
00000060: 3704 3d3d 40b0 2b3d 73b8 bc3c d061 533d
00000070: b7e5 14bd a761 b0bd d3ec cb3d 8229 a63d
0.07147565 -0.03190745 0.0914606 -0.07264079 -0.01852349 -0.09582807 -0.06694257 0.0010109782
-0.09060426 -0.023340011 0.06690403 0.06984246 0.02410971 0.009942591 0.0015960813 0.035928834
-0.0008249641 -0.08132137 -0.009039379 -0.015646195 -0.044017054 -0.078192316 -0.004185295 0.03465079
0.046146598 0.041916132 0.023037171 0.051606953 -0.036351886 -0.08612376 0.0995728 0.08113386

layers.1.weight f4 [32, 32]
00000000: 003c a039 367c b93d 5100 033e daaf 8b3e
00000010: ccfa b33e b25c f8bd f030 babd b6e2 853d
00000020: 6d20 ba3e 4931 883e f807 c0bd 760c 25bf
00000030: 667b 1c3e c463 c5bd 2a97 9abe b64b c6bc
00000040: a90d ba3e ab5d 53be ea4f c93e 8ae2 4f3e
00000050: c9ae 653e 43c9 ef3e ac88 933d 38fd 26bf
00000060: ae4f 983d 134b 13bd 5686 aebc 1eeb c33c
00000070: a7dd 6dbe 4267 bbbd 74e4 1ebe 9eb8 9abd
00000080: 3b74 5dbe 599c 9bbe 572a 09be 6e07 fa3d
00000090: ae85 cfbd eba4 6b3e 68c2 2e3e 0e91 2b3e
000000a0: 07a3 5b3e 82a6 a6be a013 cc3d 7cf7 e1bc
000000b0: 0fe4 263d 3b89 a8be 6006 273e 905e bd3e
000000c0: 2806 82be c114 43be 9ad0 2c3e 79bb 74be
000000d0: 483f afbd efcb 50be 055e 99be 48f3 cd3e
000000e0: 14aa acbd 59ec db3e e0aa b9bd faa6 d8bd
000000f0: 5c76 ebbd 341a 19be a1bb 5ebe ba65 e43d
00000100: 0349 a5be 778d bebe 12ce be3e 48b5 553c
00000110: 6873 693e 2744 62be 0996 2fbe 17cd 2f3e
00000120: 46a3 f5bd 1e54 083e 1075 d2bd 2b11 38bd
00000130: 6685 20be 4c4b 5bbc 6729 1e3d 64e9 953d
00000140: a3dd b4be 7ecc ab3e 7146 b23e 53b1 41bd
00000150: 1877 b5be 9c20 633c c229 94bd 920b a13e
00000160: 0e89 b93e 1f78 3f3d 014d 25be 2064 1f3e
00000170: 1707 3abe 687f 843d 2191 193e 0d9c 91be
00000180: 2a52 9b3e 2685 85bd 109e 2e3e 6369 f83e
00000190: 59c6 723e c4d1 ea3d ad09 1d3e 58a3 8abe
000001a0: 8e83 c13c 2b81 533e 101d c33d 6a49 28be
000001b0: 53c6 253e d658 ac3e 90f8 d53d 12cf b13d
000001c0: a323 503e 0fd5 07be 2a6e d8bd bb83 10be
000001d0: 4c9d e0bd f457 283c f96f 003f f097 e23d
000001e0: 962b ad3e 20b1 7a3b 486d e63d 8eb9 903d
000001f0: 4e2a adbe c022 583b 8bf0 4b3d 8d4f a03e
00000200: b84b 123e 6664 dbbd f259 033e 9b76 5cbd
00000210: b64f 8bbe 869f eebd 4304 40bd 03ae 793e
00000220: b3f6 c53e 7893 8dbe c231 a93d 28cc 4abe
00000230: bbf9 19bd c20f d83d a8d3 973d e65b 293e
00000240: e474 183e eb5f 5cbd 4376 733d 1fdc 66bd
00000250: cfc4 7fbe 2c7a dc3d 1061 d73d fe54 8e3e
00000260: f037 213e 2e66 e53c 429a 9f3d 62a5 29be
00000270: ca9e c6bd c7d6 5f3e 5b9f 173e 8ae9 973e
00000280: 6142 a43e 0603 b9bc 33bd 2fbe d06e 83be
00000290: afb6 6b3e 652b 533e 5801 48bc bacb 23be
000002a0: 70c5 ed3b 26ae f4bc d776 023e 7215 61be
000002b0: 4adf 40be a5ad 5bbe edc2 19bd 0626 013d
000002c0: e9a0 00be 8c5a 2bbe f59c cbbe 2264 5b3e
000002d0: 52c4 e9bd fca9 823e ccab 2d3e eeb0 14bd
000002e0: be74 863e c65a ce3d 11af 55be 7ac9 9dbd
000002f0: 49fc 2cbe a2fc b6be e678 ec3c 98d7 dbbd
00000300: 7cd7 e5bd b7a1 333d 21bf 05be 302f 473e
00000310: 1aba 97bd be00 37be 705c 97bd fa4e cb3d
00000320: 363f 0d3e 2705 943e 668c 11be c3e9 85be
00000330: b068 993b da23 bd3e 2b21 24be 73d3 3f3e
00000340: 5e07 0e3d 6af6 93be 42d3 9e3e bf5a 70bd
00000350: 190b 5cbe a63f 9a3e d5c3 6a3e 3781 823e
00000360: 187a 233e 5cca 97bc 244c 9b3d ae6b 903e
00000370: 062c edbc b11a 80be f1c8 e13e 5df3 73be
00000380: 4661 5bbe 8493 bbbe 7551 8a3e 8ab7 993e
00000390: fcd3 febc 0959 8cbe 95ef 243e 5f04 5b3e
000003a0: 115a 5a3e e5d9 933e da5d f83d 1077 cc3b
000003b0: 58e7 1bbe f7d7 68bd 6de8 babe 1338 113e
000003c0: 2df8 53be dfe1 c43e 9608 d0bd d2e3 23be
000003d0: 7be1 0bbe e08c 96bd b285 39be 100f cb3b
000003e0: c7ad 003d 1e33 debc 0e64 e3bd c318 4e3d
000003f0: ccbd e9bc 46ec 88bc d6c1 e0bd d4b8 29be
0.00030562282 0.090568945 0.1279309 0.27282602 0.3515228 -0.12127055 -0.09091365 0.06537382
0.36352864 0.26600102 -0.0937652 -0.6447214 0.15281448 -0.096381694 -0.30193454 -0.024206024
0.36338547 -0.206412 0.39318782 0.20301262 0.22429956 0.46833238 0.072038025 -0.6523013
0.07437073 -0.03596027 -0.02130429 0.023915824 -0.23229085 -0.09150554 -0.15516835 -0.07554744
-0.2162637 -0.3039272 -0.13395058 0.12208448 -0.10132919 0.2301213 0.17066348 0.16754553
0.21448909 -0.3254891 0.09964681 -0.02758383 0.040744837 -0.329172 0.16311026 0.36986208
-0.25395322 -0.19050886 0.1687645 -0.2389964 -0.08556992 -0.20390294 -0.29954544 0.4022467
-0.08430877 0.42953756 -0.09065795 -0.10578723 -0.11497185 -0.14951402 -0.21751262 0.11152215
-0.32282266 -0.37217304 0.37266594 0.013043709 0.2279793 -0.2209631 -0.17147078 0.1716808
-0.119940326 0.13313338 -0.10276234 -0.044938248 -0.15675887 -0.013384651 0.038613703 0.07319906
-0.35325345 0.33554453 0.34819368 -0.04728825 -0.35442424 0.013862755 -0.07234527 0.3145414
0.36237377 0.046745416 -0.16142656 0.15565538 -0.18166767 0.06469613 0.14996769 -0.2843937
0.30336124 -0.06519537 0.17052484 0.48517904 0.23708476 0.11465791 0.15335722 -0.27077746
0.0236223 0.20654742 0.095270276 -0.16434255 0.16188936 0.33661526 0.104478 0.08682074
0.20326094 -0.13264869 -0.10567887 -0.14112751 -0.10967502 0.010274876 0.50170857 0.11064136
0.33822316 0.0038252547 0.112513125 0.07066642 -0.33821338 0.0032979697 0.049789947 0.31310692
0.14286697 -0.10712509 0.1282728 -0.05382405 -0.27209252 -0.116515204 -0.046879064 0.24382786
0.3866478 -0.27651572 0.08261444 -0.19804442 -0.037591677 0.105498806 0.07413417 0.16538963
0.1488834 -0.053802412 0.059438955 -0.056362268 -0.2497742 0.1076549 0.1051656 0.2779922
0.15743995 0.028002825 0.07793094 -0.16566995 -0.09698255 0.21859275 0.14806883 0.29670364
0.32081893 -0.02258445 -0.17162018 -0.2567048 0.23018907 0.20622022 -0.012207352 -0.15995684
0.0072562024 -0.029868197 0.12740646 -0.21980837 -0.18835178 -0.21452959 -0.03753941 0.031530403
-0.12561382 -0.1673376 -0.39768186 0.21424916 -0.11414398 0.25520313 0.16960067 -0.036301546
0.26260942 0.100759074 -0.20867564 -0.07704444 -0.16893114 -0.3573962 0.028866243 -0.107344806
-0.11222741 0.043855395 -0.13061191 0.19451594 -0.07408543 -0.17871377 -0.07390678 0.09927173
0.13793644 0.2891018 -0.14213714 -0.2615491 0.004681669 0.36941415 -0.16028278 0.18733005
0.034674995 -0.28898937 0.31020552 -0.058680292 -0.21488608 0.30126685 0.22926266 0.25489208
0.15964544 -0.01852911 0.07582882 0.28207153 -0.028951656 -0.25020364 0.4409862 -0.23823304
-0.21423826 -0.36635983 0.27015272 0.30022842 -0.031106941 -0.27411678 0.16107018 0.21388386
0.2132342 0.28877178 0.12127276 0.0062397793 -0.1522497 -0.056846585 -0.36505452 0.14181547
-0.2070014 0.38453576 -0.10157888 -0.16004875 -0.13660233 -0.073510885 -0.18117407 0.006196864
0.031415727 -0.027123984 -0.11103068 0.050316583 -0.028532885 -0.016714226 -0.10974471 -0.16574413

layers.1.bias f4 [32]
00000000: 68fd 143e be62 54bd b62c 2b3d 9e3c 06be
00000010: 8389 0fbd 2615 ac3c 86cd 31bd 03d8 263e
00000020: 5248 d93d b9dd 673b e674 8e3c fde9 c5bd
00000030: c2f8 8dbb 229b f03d df0d 0ebe 5bd1 093d
00000040: 2537 a2bc 16ea 01be 4e14 98bd 19d3 0ebe
00000050: 5597 72bd 8ef5 5dbd 1597 493d a0a8 153e
00000060: 8c58 413d adb4 61bd 3dc9 c63d 6dd6 4f3d
00000070: ab54 ed3d 4291 bdbd 152a d5bc 9216 c43b
0.14549792 -0.05185198 0.041790687 -0.13109061 -0.03504325 0.021006178 -0.043408893 0.1629334
0.10609497 0.003537996 0.017389726 -0.0966377 -0.0043326328 0.11748339 -0.13872479 0.033646923
-0.019801686 -0.12686953 -0.07425748 -0.13947715 -0.059226353 -0.054189257 0.04921635 0.14615107
0.047203586 -0.055103946 0.09706352 0.0507416 0.11588415 -0.09256221 -0.026021043 0.005984136

layers.2.weight f4 [32, 32]
00000000: a515 9fbe dca5 9ebd e7f6 01bd f0ee fcbd
00000010: ba16 893d 3dba 30bd 071d 53be a034 bcbd
00000020: f881 67be 8f4f 33bd 8083 d23b aa1b 183d
00000030: ef0a d63e 461e a93c fb42 dd3e 27bb 033d
00000040: 10a2 843d e4ed 0ebe 1bc3 2fbd d835 0b3f
00000050: 6ca2 963d 58cd a9bd 1f21 423e a212 c33d
00000060: 7037 b03e 5d3e 8b3e efe4 1a3d f979 043e
00000070: ac3c b43d 538e c63e 0d78 323d f3f5 603e
00000080: 8d25 80be 6a4e ec3d 7a05 7dbe cc99 e33d
00000090: 695d 7b3e 2dfb 92be 7c15 73bc 691a 4b3e
000000a0: 1a65 44be 2821 a1bd 20ed af3d b0f0 3dbe
000000b0: 974a 4cbd e951 19be bd30 aabe 2fd4 0fbd
000000c0: 86fa 8abc 4779 afbe 4d15 dc3e 86bd 173e
000000d0: e49d 053e 960d d13d 4e3c 8bbe 13ca 0a3e
000000e0: b3de 013e 8c69 f93d d67e 9abd 2412 9f3d
000000f0: f855 48bc a3c3 823e 4823 8e3d aab7 303e
00000100: a66e d23d dae4 333e 16d5 d83d 0237 f6bd
00000110: 8a2c 44be c6b4 0cbe 53e9 553e 9a88 95be
00000120: eb17 70be 1ec2 b4bd 0276 3e3e 32bb 1abe
00000130: 796f 843e 1f65 683e 5636 ea3d ae26 38be
00000140: 4f21 4e3e e918 bb3e e13f 933e fee1 e0bd
00000150: f039 bd3e 2580 1e3e 3a6a cc3e 516f 9d3e
00000160: 2046 55bb 4bb3 793d 9a28 c1bd d6c7 2a3e
00000170: 0344 6c3e e532 59be 3013 25be efc9 73be
00000180: b27f 25be ab82 353e 9497 81be 5e3e 04bd
00000190: 3868 26bc 4e68 b33c aa7b c0be 7cb9 b43d
000001a0: 0983 073e 7e3c f8bc a15c 6b3e 0405 42be
000001b0: d62c b23c 6cb3 4bbe 0745 643e f8a6 273c
000001c0: eb0d 7c3d ce02 8fbe e51a 08be 702e 29be
000001d0: 5c00 edbe 9d2e 093f 8a6b d33e 172e 70be
000001e0: 0b4d a2be 88a6 273e 2e92 3abe 9702 18be
000001f0: 38ff 963d f081 b43d 1037 b83d dc51 543e
00000200: 90c2 a13d 1f31 253e 7889 4ebe c590 6f3e
00000210: b69d ba3d b9e0 2fbf 1630 ec3c 77e5 3bbe
00000220: 3cd6 afbe e0fe 1cbb 4f09 b33e 2895 11bc
00000230: 343c 263e 5747 833e 0615 d8bd ff63 4dbd
00000240: 142e 9e3d 3173 bebe a38b 4a3d 1b3f 7bbd
00000250: 8b50 abbe 5222 4bbe 0760 c3be f6e4 06bd
00000260: 6887 843e 98cd b9bd 35a8 343e a0b9 3d3e
00000270: 87c4 0dbe ff4e 423e fd44 03be 02b5 9d3e
00000280: 0e44 e73c d3c6 443d 3bb9 00bf aba2 663e
00000290: 7022 a63e a856 cfbd 3beb 1dbd 2025 1e3b
000002a0: 1dcd 743e 47ba c83d a8e5 2e3e 80a0 243a
000002b0: e2cf 8e3d c991 a6be 8082 623a 4711 5dbd
000002c0: d79e 0fbe a75d 103d 98f6 033e 9843 09be
000002d0: a6bb e1bd 2edc 2c3e 1b37 86be 6c28 14be
000002e0: a31a 4b3d 87db 023e 233c 0c3d d6c2 8abe
000002f0: cab7 cbbe 1f09 2f3d 5823 883e ec84 51bc
00000300: 0d38 1e3e b431 c7be 6d8a 2dbe 848e c6bd
00000310: 1ed5 a53e 4ac3 243e 0f89 5a3e c052 bcbd
00000320: 9fd2 2a3d 2163 5e3e dcd0 bebe f367 243d
00000330: 4ffe a4be 3853 34bc 5791 983e be33 17bd
00000340: fa55 053d ee89 d83d d562 a0be 077e 483e
00000350: ceec 963e 886d 1bbe 4e4e abbc 1e6c 91be
00000360: a635 aa3c 18ba 24be 0e4d 153d b6bc a1bc
00000370: 0468 9c3d fae9 89bd 58c3 66bc 688d 47bc
00000380: 408e e63a dc2f dd3c f436 8a3e 704f ef3d
00000390: 81b7 b93e 4aba 273e 18e0 3a3e 6a7e ab3e
000003a0: a16b 593e 6a0c 10be 532e 7cbd ae9d 3c3e
000003b0: 486a 53bc cedb 913c 36d7 8ebe dd35 6b3e
000003c0: 5572 89be 2081 293e 15df 4d3e 3b36 283d
000003d0: 0668 5d3e d773 573d bbf7 69bd 4caa 88bd
000003e0: 9f0d 4bbd 26a1 383e bff2 7dbd 5075 cfbd
000003f0: 683b c73d cf0b 80be 9fdc 58bd 3ea9 1e3e
-0.310712 -0.07746479 -0.031729605 -0.12350261 0.06693788 -0.04314636 -0.20616542 -0.09189725
-0.22608173 -0.043777045 0.0064243674 0.037135758 0.41805217 0.020644318 0.43215165 0.032160904
0.064762235 -0.13957936 -0.042910676 0.54379034 0.07355198 -0.08291119 0.18957947 0.09525038
0.34417295 0.27196017 0.037815984 0.12937154 0.08800635 0.3878046 0.04357152 0.21968822
-0.2502865 0.11538394 -0.2470912 0.11113319 0.24547352 -0.28707257 -0.014836665 0.19834293
-0.19179192 -0.07867652 0.0859015 -0.18548846 -0.049875822 -0.14972652 -0.3324031 -0.035114463
-0.016965162 -0.34272215 0.42985 0.14818391 0.13048512 0.102076694 -0.27194446 0.13553648
0.1268261 0.121783346 -0.07543723 0.07767132 -0.012227528 0.25539884 0.06940323 0.17257562
0.10275011 0.17567769 0.10587518 -0.12022211 -0.19157615 -0.13740835 0.20889787 -0.2920578
-0.23446624 -0.088260874 0.18599704 -0.15110472 0.25866297 0.22694825 0.11436145 -0.17983505
0.20129894 0.36542442 0.28759673 -0.109806046 0.36958265 0.15478571 0.39924794 0.3074899
-0.0032543018 0.060962003 -0.09431572 0.16677794 0.2307282 -0.21210821 -0.161206 -0.238075
-0.16161993 0.17725627 -0.25310957 -0.03228604 -0.010156684 0.021900322 -0.37594348 0.08824441
0.1323358 -0.030302282 0.22984554 -0.18947226 0.021749895 -0.19892663 0.22291957 0.01023268
0.06153671 -0.27931827 -0.1329151 -0.16521621 -0.46289337 0.5358675 0.41292983 -0.23455082
-0.31699404 0.1637212 -0.18219826 -0.14844738 0.07372898 0.08813846 0.08994877 0.20734352
0.07898438 0.1613202 -0.20169628 0.23395069 0.09112112 -0.68702275 0.028831523 -0.18349253
-0.34343135 -0.0023955628 0.3496804 -0.008885659 0.16233903 0.25640365 -0.10550885 -0.05014419
0.077236325 -0.3719726 0.049449574 -0.06133948 -0.33459887 -0.19837311 -0.381592 -0.032933198
0.25884557 -0.09072417 0.17642291 0.18527842 -0.138445 0.18975447 -0.12819286 0.3080216
0.028230693 0.048041176 -0.5028264 0.2252299 0.3244815 -0.1012395 -0.03855441 0.0024131015
0.2390637 0.098011546 0.17079794 0.000628002 0.06973244 -0.325331 0.0008640662 -0.053971555
-0.14025436 0.035245564 0.12887037 -0.13404691 -0.11022119 0.16880867 -0.26213917 -0.14468545
0.04958595 0.12779056 0.03423704 -0.27101773 -0.39788657 0.042733308 0.26589465 -0.012788039
0.15451069 -0.38905108 -0.16947336 -0.096951514 0.32389158 0.16090122 0.21341346 -0.09195471
0.04170477 0.21717502 -0.37268722 0.040138196 -0.32225272 -0.011006169 0.29798386 -0.03691458
0.032552697 0.10573183 -0.31325403 0.19579326 0.29477543 -0.15178502 -0.020911362 -0.284028
0.020777535 -0.16086614 0.03645044 -0.019743305 0.07637027 -0.067340806 -0.0140846595 -0.01217971
0.0017590001 0.02700036 0.2699505 0.116850734 0.36272815 0.16379657 0.18249547 0.33494884
0.21232463 -0.14067236 -0.061567616 0.18419525 -0.012903757 0.017805006 -0.27898568 0.22969766
-0.2684504 0.16553164 0.2010463 0.041067343 0.21621713 0.052600708 -0.05712102 -0.066731066
-0.049573537 0.18030223 -0.06199908 -0.101297975 0.09728128 -0.2500901 -0.052944776 0.15494248

layers.2.bias f4 [32]
00000000: d51a 34be ae08 223e 91db 893d 0f8a bc3d
00000010: bff9 233e 2f3f 28be 5f2b b2bd fa69 6c3b
00000020: bcc1 9c3d f20c ecbd 8383 913d 522b 0cbe
00000030: 6da0 ce3d 106d d0bd 066d fb3d 880b 75bd
00000040: 06bc e33d 7478 023c b0be a23c 0a42 b7bd
00000050: 569c c6bd e24d 95bd 2797 89bd a4cb 1e3e
00000060: 0f4a 27be b3dc 06be 7c61 163e de67 f2bd
00000070: c6be e83d 7b31 f53d 3da2 fabd 1271 0a3e
-0.1758836 0.15823624 0.06731332 0.0920602 0.1601324 -0.16430353 -0.08699679 0.003607391
0.076541394 -0.115259066 0.07105162 -0.136884 0.100891925 -0.10177052 0.12276654 -0.05982545
0.11119847 0.007963289 0.019866318 -0.08948143 -0.096977875 -0.072902456 -0.06718283 0.1550737
-0.16336845 -0.13170128 0.14685625 -0.11836217 0.11364512 0.11972328 -0.12237976 0.13519695

layers.3.weight f4 [2, 32]
00000000: 2d76 463f c816 e0be bfb1 07be 6592 8f3f
00000010: 7ac7 be3e 5a0c 3e3f b50f e3be a9cd 82be
00000020: 20c0 04bb 80ee 9b3e 6883 a93e 6eca 1e3f
00000030: 79f6 5e3e 3b41 7e3f 51da 03bf 86da 913f
00000040: 7f64 b3be a3e0 a03f d577 d43f dd94 de3f
00000050: 217e 923f e509 4e3f 23ce 7c3f 781f 583f
00000060: 109a d8be 16a3 d6bd 6ae1 9dbf aade b73e
00000070: fd63 77bf dc53 c8be a2e2 b53f 06d2 a63f
00000080: 15fb c1bf 5720 0f3e c647 383e 94da 9e3d
00000090: 5757 783f c35f 03c0 0505 1b3f 59de 2ebf
000000a0: 9040 a63e 0cf6 0a3f 02dc 92bf 556f ac3e
000000b0: 5098 a23f c213 99bf 2f1f 60bd 6314 48bf
000000c0: ace8 ab3f dc2f b4bf cb4e a8bf bbb0 42bf
000000d0: 7a9d 1abf 37d9 5fbf 407b 3ebf c110 60bf
000000e0: 7e69 d1be 6652 e0bf 6a04 2340 5c79 b53d
000000f0: b550 1240 b37a 12be a9e8 87bf d0ad 8ebf
0.7752407 -0.4376738 -0.13251399 1.1216551 0.37261564 0.74237597 -0.4434792 -0.2554753
-0.0020256117 0.304554 0.33108068 0.62027633 0.2177371 0.99318284 -0.51505 1.1394813
-0.3503761 1.2568554 1.659907 1.738918 1.1444741 0.8048385 0.9875204 0.8442302
-0.4230504 -0.10480325 -1.2334416 0.35912067 -0.96636945 -0.3912648 1.4209788 1.3032844
-1.5154749 0.1397718 0.1799613 0.07756534 0.9700827 -2.0527198 0.60554534 -0.68308026
0.32471132 0.5428169 -1.1473391 0.3367869 1.2702732 -1.1959155 -0.05471724 -0.7815611
1.3430381 -1.4077106 -1.3149046 -0.7605092 -0.6039654 -0.8744082 -0.74406815 -0.87525564
-0.40900797 -1.7525146 2.5471444 0.08861038 2.286176 -0.14304619 -1.0617877 -1.1146793

layers.3.bias f4 [2]
00000000: 129d 343e 6054 963c
0.17638043 0.01835078
