A2/part2/rhc_model_params.pt (torch, 14892 bytes, 8 tensors)

layers.0.weight f4 [20, 100]
000000 8d 4b 1a bd 3a 78 10 bd 33 6d b0 3a fa 6a 85 bd
       -0.037669707 -0.035270907 0.0013460278 -0.06514545
000010 50 75 12 3d cd de bf 3d 83 05 c2 bd 98 9f 7c bc
       0.03575641 0.09368668 -0.094737075 -0.0154189095
000020 5f fd 9c 3d 5a 2a 0d bc e3 24 08 3d 9a f8 f7 3b
       0.07665514 -0.008616054 0.033238303 0.0075674774
000030 88 6c 15 3e 58 02 41 3c b0 2e c0 3d 88 6e 8b 3d
       0.14592183 0.011780344 0.09383905 0.068081915
000040 30 d5 c5 3d a7 d7 47 3d 03 c5 b0 bd 72 4c 9d bd
       0.09659803 0.048789646 -0.08631327 -0.076805964
000050 4d 86 ec bc 73 78 01 bc 0d 56 05 bd a5 2c bf bd
       -0.028872633 -0.0079022525 -0.032552768 -0.09334687
000060 a7 da 52 bd 87 8e 64 bd 20 dd 7c bd 9c 35 aa bd
       -0.051478054 -0.055799987 -0.06173432 -0.083110064
000070 ea eb 5a bd a0 1e 72 bd b2 e1 a5 bd 13 45 b2 bd
       -0.05344764 -0.059111238 -0.080996886 -0.08704581
000080 1f 56 bb bd 03 1a be 3d 47 a7 84 3c 0a 06 39 bd
       -0.09147286 0.09282305 0.016193045 -0.045171775
000090 07 67 99 3d 99 c1 43 bd 5a 8f 99 3c 27 29 b8 bc
       0.07490354 -0.04779205 0.018745113 -0.02248056
0000a0 f5 80 a0 bd 2d 97 58 3d 3a f1 1d bd 2d c2 fc 3c
       -0.078370966 0.052878547 -0.03856013 0.030854309
0000b0 b1 89 17 be 8d 24 01 3d c0 01 fb bc 67 ac 26 3b
       -0.14798619 0.031529 -0.030640483 0.002543235
0000c0 9a 40 cf 3c bc 33 c9 3d fa a2 4b 3d c0 76 ad bc
       0.02529936 0.09824321 0.049715973 -0.021174788
0000d0 27 44 e9 3c 65 2f 07 be b7 38 a7 bd d6 f1 0f bd
       0.02847488 -0.13201673 -0.081651144 -0.035142742
0000e0 9a 75 d7 3c e7 54 81 3d d0 fc 04 3d cd e3 8e 3d
       0.026301194 0.06315022 0.032467663 0.06977043
0000f0 da 34 a2 3d fd 95 c3 bd 37 89 3f 3d 32 09 a1 3d
       0.07920237 -0.09550092 0.046761718 0.07863082
000100 0e f1 8f bd 33 fe 62 3c 87 b0 2a bd 2a 50 9d bd
       -0.070283994 0.013854551 -0.041672256 -0.07681306
000110 1a 96 3e bc c6 ff fb 3c 10 a9 1c bd 67 ce 9c 3a
       -0.011632467 0.03076161 -0.038247168 0.0011963368
000120 fa eb 70 3d 7a 99 37 bd 9a 61 46 bc a2 fa ac 3d
       0.058818795 -0.0448241 -0.012108231 0.08446242
000130 7a a0 86 bd 43 c5 56 3d c3 b1 62 3d ba 60 be 3c
       -0.06573577 0.052434217 0.055345308 0.023239482
000140 fd 39 56 bd 5a b5 24 bd f3 a3 e8 3c c7 cb 0f 3e
       -0.052301396 -0.040212013 0.02839849 0.14042579
000150 93 53 d4 bc 2d 7f 6c bd 6a cc 2e 3d 1d c0 1f 3d
       -0.025918758 -0.05773847 0.042675413 0.039001573
000160 1a f0 b9 3d 7d b7 2c 3d 2d e0 a0 bc 00 b8 1e 3b
       0.09078999 0.042167176 -0.019638145 0.002421856
000170 07 79 2e bd 87 b2 82 bc 17 b0 33 bd 47 a1 13 be
       -0.04259589 -0.01595427 -0.043869104 -0.14416991
000180 9a a2 88 3c b3 0f 84 3c b0 01 15 3d e7 3f bd bc
       0.016679097 0.016120767 0.036378562 -0.02310176
000190 2d 5d c5 3d c7 ca d7 3c ba 68 f9 3c 78 6e b7 3d
       0.096369125 0.026341809 0.030445445 0.08956617
0001a0 95 e4 be 3d 3d f7 35 bd 93 16 5c 3d ed 10 57 3d
       0.09320942 -0.044425238 0.053732466 0.052506376
0001b0 1d 70 89 bd 95 21 c0 3d c7 09 9c bd 28 68 91 bd
       -0.06710837 0.09381405 -0.076190524 -0.07099944
0001c0 9a 92 4a bc 33 6f 51 3b 80 43 ce 3c ba 00 c7 bd
       -0.012364054 0.003195715 0.02517867 -0.097169355
0001d0 27 1f 99 3d da 6e f4 3d 05 86 b2 3d a7 d9 8d bc
       0.07476645 0.11935206 0.087169684 -0.017315699
0001e0 5b c9 12 3e f7 57 6d bd e0 78 20 bd 3a e9 e6 bc
       0.14334624 -0.057945218 -0.039177775 -0.028187383
0001f0 97 fe 6c bd 00 a0 b7 39 20 0a 84 3d 80 64 0c bc
       -0.057859983 0.0003502369 0.06447244 -0.008568883
000200 e0 69 9f bc cd d2 bb 3a 7a 22 06 3d 67 0c 39 3b
       -0.019459665 0.0014329791 0.032747723 0.0028236152
000210 cd 59 4c bb 07 9d 79 3d 02 a5 c8 bd 97 d6 2b 3d
       -0.0031181455 0.06094077 -0.09797098 0.041952696
000220 e8 0e b0 3d 2d ad b5 bc 00 dd b9 bd 6f c6 96 3d
       0.08596593 -0.022177303 -0.090753555 0.07362067
000230 02 fb c7 3d f3 49 21 3c e4 e5 76 3d 5f e5 ad bd
       0.09764673 0.009844291 0.060277835 -0.08491015
000240 32 a2 98 bd dd 4d 50 bd d2 c9 99 3c 67 b8 f0 bb
       -0.07452811 -0.050855506 0.018772993 -0.007346201
000250 80 06 08 3c c3 46 60 bd 97 4d 4d 3d b3 17 8f bc
       0.008302331 -0.054754984 0.050122824 -0.017467355
000260 e8 b9 b1 bd 47 fd 55 3d 38 1f b2 3d 68 bd a7 bb
       -0.08678037 0.052243497 0.08697361 -0.0051190145
000270 55 9c 94 bd 7f 4e 81 bd 67 c6 e5 bb c0 0a 6c bd
       -0.072563805 -0.063138 -0.007012177 -0.05762744
000280 27 64 c1 3c f8 55 8c bd 9b 27 90 bd aa ad 10 bd
       0.023607327 -0.06852335 -0.07038804 -0.03532187
000290 9d 8d 30 bd 1a 27 35 3c 3a ed 68 bd 2f 31 91 bd
       -0.043103803 0.011056686 -0.056866862 -0.07089459
0002a0 30 b0 c6 bb 9a 2d c2 bd ea 4a 91 3d 67 76 54 3d
       -0.0060634837 -0.09481354 0.07094367 0.05187073
0002b0 67 f7 bb bc a4 79 0d 3e 23 84 72 bd 92 34 a8 3d
       -0.022945119 0.13815933 -0.059208047 0.08213152
0002c0 98 1b 05 3e 3d a7 0e 3d a2 87 c8 bd a0 3c ff bc
       0.12998807 0.03482746 -0.09791495 -0.031156838
0002d0 b3 1f 92 3c dd cf b5 bd 9a d5 c7 bc 2f 9c be 3d
       0.017837381 -0.088775374 -0.024393845 0.093071334
0002e0 17 7b 73 3d 18 51 90 bd 33 07 01 ba 33 5b 9e bd
       0.05944356 -0.070467174 -0.0004922032 -0.077322386
0002f0 74 b4 45 3c 02 f7 c5 bd 3d 77 0e bd c7 46 8d bd
       0.012066949 -0.096662536 -0.034781683 -0.06898265
000300 80 11 4f 3c 4d 06 e2 3b 60 9a ac 3d 50 8b 50 3d
       0.01263845 0.006897724 0.08427882 0.05091411
000310 2d 13 f4 bc f7 ac cb bd c7 95 a6 bc 80 61 bc 3c
       -0.0297943 -0.099451 -0.020335091 0.02299571
000320 f5 5d a3 bd 48 9a 9c bd 33 9c dd 3c 27 b3 dd 3c
       -0.07976905 -0.07646614 0.02705202 0.027062966
000330 6d d8 2e 3d 1a de d0 3c 5a 76 a6 bd 8b d9 92 bd
       0.04268687 0.025496531 -0.081280425 -0.07170399
000340 62 13 c6 bd 35 2e c6 3d a8 2f 9a 3d 8d 0a 6c 3c
       -0.09671666 0.09676782 0.07528621 0.014406812
000350 22 2a a7 bd dc cf ee bd 1b 06 87 3d 92 75 a2 bd
       -0.08162333 -0.1166074 0.065929614 -0.07932581
000360 4d a1 56 3d f3 c1 17 bd 78 d0 f7 bd a0 01 e8 bc
       0.052399922 -0.0370502 -0.12100309 -0.028321087
000370 33 0f 04 3c 23 e1 0f bd 13 f1 a8 3c f5 58 8a 3d
       0.008060264 -0.035126816 0.020622766 0.067552485
000380 cd 14 f7 ba c2 92 ad bd a0 97 5d 3d e7 58 8a 3d
       -0.0018850804 -0.084752575 0.05409968 0.06755238
000390 fa 85 91 3c 1a d1 e6 3b 67 e8 e8 3a c0 6d 0a 3e
       0.01776408 0.00704397 0.0017769457 0.13518429
0003a0 e7 c2 27 3c 37 4e 28 bd a7 8b 88 3c 4d f7 b5 3d
       0.010239339 -0.041090216 0.016668154 0.088850595
0003b0 98 e3 ce bd 70 4c a7 bd 17 56 c8 3d 9a ab 99 bc
       -0.10102004 -0.08168876 0.09782045 -0.018758584
0003c0 4d 15 3a 3c f0 d1 38 bd 10 a3 af bd f0 bf a4 3d
       0.011357618 -0.045122087 -0.085760236 0.08044422
0003d0 5a af 7a 3d df d0 95 bd a7 84 3b 3c 87 cf a9 bd
       0.061202385 -0.073152296 0.011445201 -0.08291536
0003e0 4a 88 73 3d 6a 60 4f bd 6d da ea 3c e7 10 45 3c
       0.059456147 -0.050629057 0.028668607 0.012027956
0003f0 13 66 b1 bc 27 0a 04 bd 95 6a 81 bd 3a 4d 97 bc
       -0.021655118 -0.032236245 -0.06319157 -0.018469442

layers.0.bias f4 [20]
000000 53 0d 8b 3d aa 7d 6b 3d 58 7a 8d bd aa 3c 8a bd
       0.06789651 0.05749289 -0.06908101 -0.06749852
000010 e7 2e 7b 3c 3a 37 85 bc da 38 36 3c 6d 43 f2 3c
       0.015331007 -0.016261686 0.011121953 0.029573167
000020 1a 1b cb bb 80 f3 71 3d c3 4b b9 3d 4a e7 29 bd
       -0.006198299 0.05907011 0.090476535 -0.04148034
000030 5d e9 46 3d 25 35 8a 3d b0 8a 6a bd 78 dd c7 bd
       0.048562396 0.06748418 -0.05726117 -0.09759039
000040 c3 ad 03 3d 37 af 39 3d aa 11 90 3d b7 da 82 bd
       0.032148134 0.045333114 0.07034619 -0.06389373

layers.1.weight f4 [20, 20]
000000 c5 eb 52 3e 56 5c 12 3e 39 5b c2 bd df 73 70 3e
       0.20597751 0.14293036 -0.094900556 0.23481701
000010 d9 ae 08 be 5e d6 2e be c5 bc 4c be 9e a2 b2 bc
       -0.13347949 -0.17073962 -0.19993885 -0.021806058
000020 d6 42 77 bd 10 4e 96 bd a0 cf df 3b 2e c9 22 bd
       -0.060366474 -0.07339108 0.0068301708 -0.03974264
000030 fd b2 24 be ce 68 52 3e f0 96 31 3c 7e 21 d9 bd
       -0.16083904 0.20547792 0.010839209 -0.10602091
000040 40 74 88 3a 3c 04 9b bd 92 2b f1 3d a1 5b 06 3e
       0.0010410622 -0.07569167 0.117758885 0.13120891
000050 3c 43 3d 3e 1f f7 40 3e 08 f3 3a be fa a2 6b 3e
       0.18482679 0.18844269 -0.18256772 0.2301139
000060 1c d3 a7 3d c6 0c ac 3d f5 43 5b 3e ed 0b 50 3d
       0.08194563 0.08400874 0.21412642 0.050792623
000070 44 b9 20 3e d8 8a 66 3e 23 a1 b0 bd be 58 fc bc
       0.15695673 0.22513902 -0.086244844 -0.030804034
000080 90 79 fb 3b 1f 95 16 bd fa 35 64 be 83 c3 52 be
       0.0076744035 -0.036763307 -0.22286215 -0.20582394
000090 19 57 29 ba 07 8f 35 be b7 95 3a 3e 27 00 84 3d
       -0.0006459817 -0.17730342 0.18221174 0.064453416
0000a0 69 07 77 be eb 94 13 3e f5 67 e2 bd dc 67 45 3e
       -0.2412392 0.14412276 -0.110549845 0.192779
0000b0 d5 2a 46 be 99 61 f1 3d 15 86 e6 3c 89 6a c0 3d
       -0.19352277 0.117861934 0.028140107 0.0939532
0000c0 73 a4 12 3b 03 06 cf 3d cd 12 b9 bd 72 46 7b bd
       0.0022375851 0.101085685 -0.09036789 -0.06134648
0000d0 46 72 84 bc 31 e0 1f 3e 5b 6e 88 be f9 71 b8 3d
       -0.016167771 0.15612866 -0.26646695 0.090061136
0000e0 50 f7 5b 3e 68 1d 09 3e a3 f5 e0 3d 44 98 0b 3e
       0.21481061 0.13390124 0.109843515 0.13632303
0000f0 19 6a 47 3d 7e 6e d3 bd a3 b4 14 3e 38 a3 77 3c
       0.048685167 -0.10323809 0.14522032 0.015114598
000100 f3 b1 2a 3e d0 74 59 3c 28 2d 38 3e 38 b1 07 3e
       0.16669445 0.013272479 0.17985976 0.13251197
000110 18 4c fa 3d a3 aa ea 3d 2b 21 41 3d aa c8 1c 3e
       0.12221545 0.114583276 0.047150772 0.15310922
000120 a4 e7 04 3d ef 7e 09 be a6 4f 33 3e 06 a4 37 be
       0.032447472 -0.13427328 0.17510852 -0.17933664
000130 2e c3 3a 3d 46 6b 20 be ed 92 21 bd 9a 53 a4 3d
       0.045596294 -0.15665922 -0.03944676 0.08023758
000140 6d 6f 09 be 4c 9f fe 3d c1 d5 e3 3c 39 df 15 3e
       -0.13421412 0.12432727 0.027811887 0.14635934
000150 83 41 87 3b fd a3 63 3e 0b 9e 0c 3e 90 81 5b 3d
       0.0041276827 0.22230525 0.13732164 0.053590357
000160 97 c2 38 be e1 e2 5f 3e ff dd 10 3e 44 29 5c be
       -0.1804298 0.21863891 0.14147185 -0.21500117
000170 63 3f 20 3e ce cb a2 3d 20 09 3a 3e 4d 09 3e 3e
       0.1564918 0.07949029 0.18167543 0.18558235
000180 f4 db 3c bd a7 53 1a be fe a3 8b 3e 1f 13 da bd
       -0.0461082 -0.15070973 0.27273554 -0.10648178
000190 70 ba 70 3e be 9c 33 bd 32 0a 33 be 42 db b6 3d
       0.2350862 -0.043850653 -0.17484358 0.08928539
0001a0 e6 21 5c be 06 e7 57 be 84 c4 01 3e 64 d2 ca 3a
       -0.21497306 -0.21084222 0.12672621 0.0015474078
0001b0 5c 0c e8 3d d1 d4 62 3e c7 62 24 3d d3 de 3b bd
       0.11330482 0.22151496 0.040133264 -0.0458668
0001c0 22 c0 42 be cf c3 3f be e7 8d 7d bd 90 58 df bb
       -0.19018605 -0.18727039 -0.061902907 -0.0068159774
0001d0 20 fb 90 3d 17 f3 25 be 0b 9b 19 bb 68 2f 7b be
       0.07079148 -0.16206013 -0.002343836 -0.24529803
0001e0 94 43 8a 3e a3 d8 a3 bd bc 8f 2f 3e 64 42 43 be
       0.27004683 -0.080003045 0.17144674 -0.19068295
0001f0 ce 11 47 3e 86 1e 1a bb bd c1 17 3e 5c 4b 61 3e
       0.19440386 -0.0023516729 0.14819999 0.22001404
000200 e7 25 34 3e 87 46 31 3d 47 49 01 3e 4b db 25 3e
       0.17592584 0.04328015 0.1262561 0.16196935
000210 0e 4d 48 3e c7 91 8b 3d a5 ec 20 bc ba a6 bc bd
       0.19560644 0.06814914 -0.009822045 -0.09211488
000220 f6 6d 8e 3e 6c da 05 3e 3d e0 c1 3d c4 f8 eb bc
       0.2781827 0.13071603 0.09466598 -0.028805144
000230 0e 2b 8a bd 86 1c 02 3d 2b da 1a be d1 c3 55 3e
       -0.06746493 0.031765483 -0.15122287 0.2087548
000240 22 48 bb 3d 0e f1 8e be 5f a5 ed 3c 99 75 49 3d
       0.091446176 -0.27918285 0.02900952 0.049184415
000250 82 11 2d bd d5 96 79 be 23 9e 80 3e c5 58 5a 3e
       -0.042253025 -0.24373944 0.2512065 0.21322925
000260 6f 4f 3d be a8 29 cb bd 46 ec cc 3d 0f 75 c7 3d
       -0.18487333 -0.09920055 0.10006003 0.09739124
000270 60 f0 41 be 51 53 96 3d 33 42 4c be 26 fd 8a 3d
       -0.18939352 0.0734011 -0.19947128 0.067865655
000280 0a 3e 12 bd 02 6b 8b 3d c6 9a 2f 3e 0e 27 8b bc
       -0.035703696 0.068075195 0.17148885 -0.016986396
000290 b0 2a 35 be 64 3a aa 3d 0b 6f aa bc e0 7b 35 be
       -0.17692065 0.083119184 -0.020804903 -0.17723036
0002a0 87 15 7e bd ee dc c5 3d 45 44 a0 3b 36 19 18 3c
       -0.06203225 0.096612796 0.004890951 0.0092833545
0002b0 f9 1f 3b be 1c 2d c3 3d b8 7a 10 3c 24 68 62 be
       -0.18273915 0.09530088 0.008818321 -0.22110039
0002c0 34 c9 91 3d 5f 85 37 3d 12 55 41 be ae 7d 85 3e
       0.071184546 0.044804927 -0.18880108 0.26072448
0002d0 b5 14 03 be a0 bf 48 be b2 ac 8a bd c1 d3 20 3e
       -0.12800868 -0.19604349 -0.0677122 0.15705778
0002e0 34 5a bf bd 67 c0 21 3b 72 a6 08 bd 84 01 65 3e
       -0.09343377 0.002468133 -0.03336186 0.2236386
0002f0 61 df 35 be 71 56 22 bd f6 32 ca 3d 1f 84 23 3e
       -0.17760994 -0.03963322 0.09873001 0.15968369
000300 48 8a 8c bd 31 a0 57 bd 2d 5d 0e be a0 b1 59 be
       -0.068623126 -0.052643005 -0.13902731 -0.21259165
000310 e0 b2 9e ba 78 34 01 3e 08 e1 48 3e d9 49 0a be
       -0.0012107752 0.12617671 0.19617093 -0.13504733
000320 f5 29 83 3d 94 de a8 bd 23 0b e4 3d 53 a5 8b 3e
       0.06404487 -0.082455784 0.11134937 0.2727457
000330 10 b0 62 3e 53 16 ab bd 02 fc a3 bd 79 b5 15 3d
       0.22137475 -0.083538674 -0.08007051 0.03655002
000340 d3 28 13 bb 58 8d e4 3c af 10 64 3e 61 77 1d 3e
       -0.0022454753 0.02789943 0.2227199 0.1537757
000350 d4 e8 66 bd 9c 69 c3 3d 31 22 12 3e a6 2a c4 bd
       -0.056374386 0.09541628 0.14270855 -0.09578447
000360 35 1e 46 be 30 ce e3 3d 12 07 59 be 52 53 f5 3d
       -0.1934746 0.111233115 -0.21194103 0.11978783
000370 fe cc ae be 72 1a a1 3c 4e 58 eb bd 37 97 a0 bd
       -0.34140772 0.01966593 -0.11491452 -0.07841342
000380 e2 f9 50 be f7 de 3f be f0 4c cf 3d c4 12 32 be
       -0.20407823 -0.18737398 0.101220965 -0.17389971
000390 86 59 16 bd 96 4f c5 bd 06 52 84 3d b2 b1 d7 3d
       -0.03670647 -0.096343204 0.06460957 0.105319396
0003a0 32 09 1c bd 1b e9 d3 3d 49 50 bc 3d e8 f2 38 3c
       -0.038094707 0.10347196 0.09195001 0.011288382
0003b0 68 a4 9f 3d 58 88 8a 3d d6 0c d9 3d 8c 6c e8 3d
       0.0779503 0.06764287 0.105981514 0.11348829
0003c0 a8 e4 5b 3e a9 01 1c bd 8d 5a 5f bd 72 2f 87 3d
       0.21473944 -0.03808752 -0.054529715 0.06600846
0003d0 80 5f d2 bd 42 2e 23 be ff f6 21 3e fc ca c9 3d
       -0.102721214 -0.15935615 0.15816878 0.09853169
0003e0 09 3c 14 be b8 c9 0b bc 93 63 92 3e 12 7b 31 3e
       -0.14476027 -0.00853198 0.28591594 0.17332104
0003f0 32 53 c5 bd 3f 73 a5 3e 01 91 ac bd 11 97 5e 3e
       -0.09635009 0.32314488 -0.08426095 0.21737315

layers.1.bias f4 [20]
000000 71 0c 0c 3e 25 44 2f be af 39 43 bc 11 01 09 3e
       0.13676621 -0.17115839 -0.011915608 0.13379313
000010 9f 31 cc 3c 84 20 95 3d bd 67 3f bc 09 2e 19 bd
       0.024926005 0.072815925 -0.011682448 -0.03739742
000020 9a 23 14 bc 82 2a 43 3e 8e 8b 0e be ce d8 b9 bd
       -0.009041691 0.19059184 -0.13920423 -0.09074555
000030 7d 1c 4e 3e 65 0d 11 be 0f 59 59 3e 93 e8 c4 3d
       0.20128055 -0.14165266 0.2122538 0.096146725
000040 a1 d4 0a 3e 02 f1 93 3d 98 45 07 bd 6c 1b f5 3b
       0.13557674 0.07223703 -0.033025354 0.0074800756

layers.2.weight f4 [20, 20]
000000 d3 a7 bc 3c 4a d4 2d 3d 73 1a 2c be 44 ab 16 3e
       0.023029244 0.042438783 -0.16806965 0.1471377
000010 da 43 b0 3d 1d 7a ad bd cb ba c5 bd 2c 88 83 3e
       0.08606692 -0.08470557 -0.096547686 0.25689828
000020 aa ef be 3c 31 eb 7b bd 14 ed 2b be 1c 10 4b bc
       0.02330764 -0.061503593 -0.16789657 -0.0123939775
000030 31 2e 21 3d 64 5b 3f be 2e 66 f6 bd 2f 55 35 3e
       0.039350692 -0.18687207 -0.12031208 0.17708276
000040 95 ae 0a be 93 dd 86 bd 94 f0 17 be 21 a6 9e 3e
       -0.1354316 -0.06585231 -0.14837867 0.3098612
000050 56 28 4e be ae 68 22 3e f6 7c 43 3e 31 e3 da 3d
       -0.20132574 0.15860245 0.19090638 0.106878646
000060 3c a4 d4 bc a1 b1 80 3e 36 2a f1 bc da c3 21 be
       -0.02595722 0.2513552 -0.029439073 -0.15797368
000070 6f 15 2e 3d 99 73 3c be 4a 1e 93 bd 72 36 0e be
       0.04250091 -0.18403472 -0.071835116 -0.13887957
000080 bf 70 5e 3e 48 3d e6 3d ee 2d 0e be 65 76 95 bd
       0.21722697 0.11242157 -0.13884708 -0.072979726
000090 22 ba 61 3e 36 91 d9 bd 55 5a 7e bd 54 2b 8a be
       0.2204366 -0.106234 -0.062097866 -0.26986182
0000a0 5c b5 56 be 00 13 c3 b9 58 fb ba 3d ea 61 e0 bd
       -0.2096762 -0.00037207454 0.09129971 -0.109561756
0000b0 75 09 1a bd 5b 5f 8b 3d b4 ae 49 be 98 fb 5f 3e
       -0.037606675 0.06805297 -0.1969555 0.21873319
0000c0 d0 1f 49 3c c1 de 37 3e 4e cc 2e 3c 7d f1 02 3e
       0.012275651 0.17956068 0.010668827 0.12787433
0000d0 b0 1c ca 3c e6 f4 0e 3e 8a d7 f3 3d 10 9c b6 3d
       0.024671882 0.13960609 0.11906345 0.08916485
0000e0 e1 48 69 3e 72 d9 f5 bd 1a 75 56 3e 1f cd 00 3e
       0.22781707 -0.12004365 0.20943108 0.12578247
0000f0 70 5e fa 3d 8d ee 77 3e 40 ab 87 bd ff 80 5b bd
       0.12225044 0.24212094 -0.0662446 -0.053589817
000100 a5 23 4d 3d c0 57 1e be 3d 10 e5 3d 61 dd b5 3d
       0.05008282 -0.15463161 0.11184738 0.08880115
000110 59 72 57 be b2 4c 40 3e 93 28 64 3e f2 58 2e be
       -0.21039714 0.18779257 0.22281103 -0.17026117
000120 1f 77 b9 3e ca e7 ab 3d 36 b8 2e be fc f5 1a 3e
       0.36223695 0.0839382 -0.17062458 0.15132898
000130 b8 bb 29 3d 3f 8b 44 3d 2a b2 d7 bd d9 92 20 3e
       0.04143879 0.047984358 -0.10532029 0.15681018
000140 c5 4b 70 3e 73 6e a3 3d 24 ee 2b 3d ed 8a 63 3e
       0.23466404 0.07980051 0.041975155 0.22220965
000150 bb e5 66 bd bd 2f 59 3e b6 be 22 be a5 b5 56 be
       -0.05637143 0.21209617 -0.15893063 -0.2096773
000160 ae 1e 49 3e 5d 5a 00 3e 1e 76 c5 3d 99 ee 80 3d
       0.1964061 0.12534471 0.0964167 0.06295509
000170 75 07 88 3e a4 06 50 3e 0e 9f fc 3d f8 2d 1a 3e
       0.2656819 0.20315033 0.12335025 0.15056598
000180 7d 79 6d 3e d3 14 33 3e 6b 93 0d be e7 03 ee 3c
       0.23190875 0.17488413 -0.13825767 0.029054595
000190 ef a6 09 be cf 33 f4 3c b1 ac eb bd 3a 02 df 3d
       -0.13442586 0.02980986 -0.11507548 0.108890966
0001a0 c6 d8 38 3e 70 2a ac 3d 77 7b bf bc 00 a9 44 bb
       0.18051443 0.08406532 -0.023374302 -0.0030007958
0001b0 e4 12 38 3e 3d f9 72 be b1 e7 59 bd a2 e5 e8 bc
       0.17975956 -0.2372789 -0.053199474 -0.02842981
0001c0 ac 77 8a bd 82 23 ca 3d 0e de cb bd 51 e7 33 be
       -0.06761107 0.09870054 -0.09954463 -0.17568709
0001d0 72 49 a7 3d fa 15 e0 bc 9c b0 14 3d 3c d8 b1 bc
       0.081683055 -0.02735423 0.03630124 -0.021709554
0001e0 d4 f2 fc bd 3b 89 59 be f6 9b fc 3d 23 88 82 3c
       -0.12351003 -0.21243756 0.12334435 0.015934056
0001f0 4b e9 cf 3c e8 78 14 bd 63 d6 19 3e 1b 29 03 bd
       0.025379797 -0.036248118 0.15023188 -0.032021623
000200 a0 65 d5 bb 5b 7c b9 3c ea 12 e0 bd 9c 0e f7 bd
       -0.006512359 0.022642305 -0.109411076 -0.120633334
000210 05 5b be bd 7a b5 85 3e d2 21 1a 3e 79 60 67 3e
       -0.09294704 0.26115018 0.15051964 0.22595395
000220 8b 4a 17 bd 67 fc 3d 3e af 8a 4b 3e 39 b2 40 be
       -0.036936324 0.18553315 0.19877122 -0.18817987
000230 6a 28 db 3d 00 dd d5 ba 9f 9c b6 bd 6c 31 a3 3d
       0.10701068 -0.0016316473 -0.08916592 0.07968411
000240 96 12 af bc 47 83 81 3e aa ec 47 3e 7f 4a 4f be
       -0.021371167 0.2529547 0.19523874 -0.20243262
000250 44 6f c2 bd 7c be e5 bd 29 a3 48 bd 44 7a bc 3c
       -0.094938785 -0.11217973 -0.048983727 0.02300752
000260 53 63 a2 3e a0 49 5c 3e 8c 5c 04 3e ef c1 7c 3e
       0.31716403 0.2151246 0.12925929 0.24683355
000270 85 1f 08 3e 35 16 a9 bd ec 8e 94 bd cf 0d 30 3e
       0.13293274 -0.08256189 -0.07253823 0.17192768
000280 7b 33 bc 3d 84 ae e0 3d 84 88 48 bd 78 1c 8b 3e
       0.091895066 0.10970786 -0.048958316 0.27170157
000290 24 ad 3e 3d 6b 3d 04 3e 91 0e 00 3e 24 df 47 3e
       0.04655184 0.12914054 0.12505557 0.19518715
0002a0 e4 eb d4 3d d2 6d 35 3e 1f f6 a0 3d 28 3d 47 3e
       0.10396555 0.17717674 0.07859444 0.19456923
0002b0 b4 1d 1e be 37 0c e6 3c a2 a0 ed bc 7e 21 c1 bc
       -0.15441018 0.028081996 -0.02900726 -0.02357554
0002c0 73 28 b9 bd 33 21 75 3e 6d cd 07 be ee dd 8b 3e
       -0.09040918 0.23938446 -0.13261957 0.27317756
0002d0 81 3e ab bc 34 d9 47 bd ee 28 80 3c da 79 e0 bd
       -0.020903828 -0.048791125 0.015644517 -0.10960741
0002e0 de 29 26 bd 7c 4c 16 3e 5f ed b7 bd 13 2b 67 3d
       -0.04056727 0.14677614 -0.08980822 0.056437563
0002f0 53 5f 11 3a c9 97 03 bd 5c 67 23 3e 7a 3d cb bd
       0.00055455155 -0.032127175 0.15957397 -0.09923835
000300 9a 86 13 bd 0d 49 39 be a1 be 8b 3d 8f bd 81 bd
       -0.036017038 -0.18094273 0.06823469 -0.063349836
000310 4e 8c 04 3d c0 25 53 3e f1 82 03 be 54 4c 1d 3e
       0.032360367 0.20619869 -0.12842919 0.15361148
000320 79 91 62 bd b9 20 7b bd b9 bf 17 be 2b 3b 40 be
       -0.055314515 -0.061310504 -0.1481923 -0.18772571
000330 85 f2 34 3d ed 0b 13 be db d9 59 3d 99 01 5d 3e
       0.044176597 -0.14360018 0.05318628 0.2158264
000340 43 21 04 3d 96 c7 93 bb 0d 19 83 3e 83 fc b1 bd
       0.032258283 -0.0045098765 0.2560505 -0.08690741
000350 0f 8b 26 3e ad 60 87 bd d7 24 52 3e ac 13 bc bd
       0.16263984 -0.06610236 0.20521866 -0.091834396
000360 5c 08 0e be 23 60 a1 3d 32 38 91 bc fe d4 7d 3e
       -0.13870376 0.07879665 -0.017726991 0.24788281
000370 24 cd 7f 3e f4 6b ab bd de db 65 3e d8 bc 69 3c
       0.24980599 -0.083702 0.22447154 0.014266215
000380 5c 67 8a 3e 46 23 da 3c ec 70 70 3e 8a 1e c8 bd
       0.27031982 0.026628148 0.23480576 -0.0977145
000390 4f ce 13 be 95 c4 30 be 45 d4 6c be 3e fa fb bd
       -0.14434169 -0.1726249 -0.2312785 -0.12303589
0003a0 e5 dc 1e be 79 4a b5 3d b0 08 6b 3e 35 85 bc 3d
       -0.15513952 0.08852095 0.22952533 0.09205095
0003b0 f8 d2 a5 bc 03 9c b2 ba d9 2c b9 3d 6a a6 25 be
       -0.0202422 -0.0013626817 0.09041757 -0.16176763
0003c0 22 55 96 3d c6 88 c1 bd 1f 80 0b 3e 32 12 7d 3e
       0.073404565 -0.094499156 0.13623093 0.24713972
0003d0 cc 6c 3e 3d 70 b3 34 bd b3 88 b3 bd 0a 38 42 3e
       0.046490476 -0.044116437 -0.08766308 0.1896669
0003e0 96 4b d5 bd 21 ae 52 3e 24 78 19 be ad fb 45 be
       -0.104148075 0.20574237 -0.14987236 -0.19334288
0003f0 73 4d 5f 3d e6 6b ea 3d cf af 33 3e d0 18 55 3d
       0.05451722 0.11446361 0.17547534 0.052025616

layers.2.bias f4 [20]
000000 0b d0 14 3e e3 75 0b 3e 2e 19 62 3e 08 ea e5 3d
       0.14532487 0.13619189 0.22079918 0.112262785
000010 09 45 2d be a4 ee 64 bd 88 da 4a 3e af 78 95 bd
       -0.16920866 -0.055891648 0.19809926 -0.07298409
000020 d4 32 be bd 7c 36 69 bd 8d 26 38 be dc 98 44 3c
       -0.092870384 -0.056936726 -0.17983456 0.011999335
000030 d4 c3 8d 3b d0 a6 4b 3e c8 38 37 3e 95 2e 15 3e
       0.004326323 0.19887853 0.17892754 0.14568551
000040 fe c9 d1 3d 2f 76 86 bd d9 11 31 be a5 c1 91 bd
       0.10243605 -0.065655105 -0.17291965 -0.07117013

layers.3.weight f4 [2, 20]
000000 b6 05 1f 3f 6f 61 20 3d 3e 48 cb 3e 00 0d b7 3e
       0.6211809 0.03915542 0.39703554 0.35752106
000010 bb 19 e1 3e b2 7e e9 bc af f6 f2 3e e7 a3 42 3f
       0.43964943 -0.028502796 0.4745383 0.76031345
000020 13 62 df 3e 84 1b d9 3d a6 4a f3 3e 33 ff 26 3d
       0.43629512 0.10600951 0.4751789 0.04077072
000030 c1 ab 11 3f ac 7f 8e 3e 03 87 a7 3e 55 0d 79 3e
       0.569027 0.2783178 0.32720193 0.24321492
000040 3b e7 0b bd 17 82 5b 3d 81 ce 7b 3e af 78 da 3e
       -0.034156065 0.05359086 0.24590494 0.426702
000050 d3 9c 1a bf f1 12 54 be e0 2d 32 3b f6 bb 87 be
       -0.60395545 -0.2071035 0.0027187988 -0.2651059
000060 f2 bc 1b be 2e 01 0e 3e e0 33 49 be 3e 2b 67 be
       -0.15208796 0.13867638 -0.19648695 -0.2257509
000070 2a 4f f5 be f9 3e 27 3e 55 5f 62 be 0e fd 15 bf
       -0.4791196 0.16332616 -0.22106679 -0.58589256
000080 13 e9 18 be 22 9f cc bd 82 ea 34 bf 8a f1 ca be
       -0.14932661 -0.0999129 -0.7067033 -0.39637405
000090 ea f2 bd be 90 bc 94 bd 73 aa 3b be a2 8a 96 be
       -0.3709939 -0.07262528 -0.1832674 -0.29402643

layers.3.bias f4 [2]
000000 29 23 18 3d e4 6c e1 3b
       0.037142906 0.006879436
