A2/part2/sa_model_params.pt (torch, 14880 bytes, 8 tensors)

layers.0.weight f4 [20, 100]
0.029652677 0.030245949 0.053649284 -0.08650591 0.06405126 -0.07028418 -0.030271769 0.01626587
-0.032317437 -0.0037170649 -0.0876681 0.06549098 -0.034340907 -0.07339262 0.013155475 0.06952766
0.0116326455 0.0076836944 -0.036965884 -0.052945137 -0.08187367 -0.025342954 -0.064179145 -0.086637154
0.0046655177 -0.02264495 0.018497169 -0.09631765 0.00111036 0.027415251 -0.06819933 -0.09953127
-0.066273 -0.056026973 -0.054862536 -0.0031642795 -0.027840901 0.04346193 0.003758788 -0.016286636
0.078160286 -0.07626877 0.049958993 0.024719728 -0.0828559 0.010148406 0.063451745 -0.09269118
0.084001474 -0.088239275 -0.094117954 0.015888203 -0.09496989 0.069680944 -0.06119132 -0.08130833
0.04579393 -0.012008381 0.07012629 0.08090943 -0.033990253 0.033666264 -0.066111125 -0.045269992
-0.001542163 -0.15236852 -0.07191578 -0.024557376 -0.090273224 0.047151018 -0.09052503 -0.1685479
0.041179277 -0.061513554 -0.07425022 0.030233253 0.08547097 -0.047803808 0.01831547 0.053032078
0.011375487 0.055569816 0.081919886 0.028662002 0.031068815 -0.0042982223 -0.068927385 -0.04853909
-0.090344064 -0.085400715 -0.0056666373 -0.0685302 -0.05169163 0.003761053 -0.061556734 0.06867387
0.09223818 0.070945255 0.036004998 -0.02230345 -0.06402262 0.072891176 -0.02432971 -0.030316627
-0.06498295 -0.040900268 -0.04807446 -0.0035937072 -0.017187774 -0.0765227 0.029914772 -0.012845183
0.09585764 0.08753897 -0.07910843 0.0930977 0.054076362 0.058784485 0.07618757 0.01148839
0.07427744 0.041366007 -0.044181146 0.017072618 0.062464368 -0.04610771 -0.07865652 -0.07640114
-0.07951987 0.019217193 -0.115436636 -0.12775472 -0.08608576 -0.018254697 0.021858716 0.1311134
-0.0055774213 -0.113305144 -0.026224947 -0.0720379 0.020461513 0.09254445 -0.0005216122 -0.058105685
-0.092832364 -0.0068514706 -0.04024711 0.028551793 -0.07717174 0.0017167687 0.19260007 -0.054633405
0.07270423 -0.031225694 -0.039703038 -0.057077624 0.076313674 -0.08276053 -0.08089975 -0.091475464
0.058263242 -0.014659298 -0.009671951 0.040094662 0.06534922 -0.11296903 0.010027289 0.0056892275
0.03435674 -0.013189996 0.07700014 0.023493504 0.23312521 0.042903997 0.08395741 0.09480663
-0.0910125 0.049059737 -0.08612355 0.041984882 0.023749754 0.06287008 0.017359687 0.07762977
0.09009009 -0.04341085 0.06583853 0.058712184 0.035078075 -0.18985987 0.1223346 0.037598323
-0.08955216 -0.030753244 -0.01973604 0.0787351 0.09494102 0.012942302 0.02119261 -0.064253226
0.055716824 -0.06589718 0.0115083335 0.033925153 0.0339648 -0.0075645684 0.05718118 -0.06523217
0.077038184 0.0077322125 -0.021705722 -0.007265139 0.117465355 -0.083627656 -0.027574122 0.014579738
-0.037207376 0.06274474 0.049708273 0.025597727 0.030655397 -0.08060544 -0.03168589 0.036118638
-0.0202528 -0.036127042 0.09552138 0.07973911 -0.10714119 0.054211926 -0.071882896 -0.054924607
-0.068399094 -0.06661891 0.036684167 0.020285511 -0.041126944 -0.0913946 -0.09761244 -0.07628212
-0.045773495 -0.018784333 0.05527078 0.08849037 -0.049485423 -0.04809586 0.01730863 0.043213
-0.028123999 0.03217416 -0.012329173 0.07051305 -0.017093813 -0.15296271 -0.006417644 -0.12098747
00000000: 2cea f23c 5ac6 f73c 5abf 5b3d 032a b1bd
00000010: 4f2d 833d 27f1 8fbd 80fc f7bc 0040 853c
00000020: 4a5f 04bd 009a 73bb 558b b3bd 2320 863d
00000030: 0da9 0cbd df4e 96bd 108a 573c 8564 8e3d
00000040: da96 3e3c 80c7 fb3b 8a69 17bd 00dd 58bd
00000050: 62ad a7bd 079c cfbc 5b70 83bd d26e b1bd
00000060: 33e1 983b e781 b9bc 6087 973c 3042 c5bd
00000070: 8089 913a f395 e03c 17ac 8bbd 0dd7 cbbd
00000080: 23ba 87bd 8a7c 65bd 8ab7 60bd cd5f 4fbb
00000090: 9a12 e4bc 2305 323d 0056 763b 8d6b 85bc
000000a0: 8012 a03d cd32 9cbd cda1 4c3d 0781 ca3c
000000b0: 5bb0 a9bd 8045 263c fdf2 813d e0d4 bdbd
000000c0: f708 ac3d cbb6 b4bd eac0 c0bd fa27 823c
000000d0: 937f c2bd e2b4 8e3d c0a3 7abd fb84 a6bd
000000e0: 6a92 3b3d cdbe 44bc 5f9e 8f3d d8b3 a53d
000000f0: 5d39 0bbd a3e5 093d 4565 87bd 076d 39bd
00000100: 6722 caba 7e06 1cbe 9548 93bd 8d2c c9bc
00000110: 2be1 b8bd 6d21 413d 3065 b9bd d297 2cbe
00000120: 9aab 283d a3f5 7bbd 8010 98bd baab f73c
00000130: 670b af3d edcd 43bd 530a 963c 2a38 593d
00000140: 4060 3a3c 2d9d 633d 9dc5 a73d 93cc ea3c
00000150: 0784 fe3c 1ad8 8cbb cd29 8dbd edd0 46bd
00000160: 4f06 b9bd 92e6 aebd 33af b9bb 9059 8cbd
00000170: 9aba 53bd 007c 763b ea22 7cbd e3a4 8c3d
00000180: 5fe7 bc3d bf4b 913d fa79 133d bab5 b6bc
00000190: 4b1e 83bd f847 953d 1a4f c7bc 935a f8bc
000001a0: c815 85bd 0a87 27bd bae9 44bd 6784 6bbb
000001b0: 60cd 8cbc efb7 9cbd d30f f53c 9a74 52bc
000001c0: 0351 c43d a247 b33d 9a03 a2bd 02aa be3d
000001d0: 2d7f 5d3d 00c8 703d 3b08 9c3d cd39 3c3c
000001e0: c51e 983d 676f 293d 4af7 34bd e0db 8b3c
000001f0: a3da 7f3d 70db 3cbd ab16 a1bd 3378 9cbd
00000200: 50db a2bd 606d 9d3c 0b6a ecbd 22d2 02be
00000210: bb4d b0bd e08a 95bc 0d11 b33c 9742 063e
00000220: cdc2 b6bb 870c e8bd b3d5 d6bc 9b88 93bd
00000230: e79e a73c f287 bd3d cdbc 08ba 3a00 6ebd
00000240: e51e bebd 4d82 e0bb 27da 24bd 73e5 e93c
00000250: 380c 9ebd 3305 e13a f438 453e 47c7 5fbd
00000260: f5e5 943d 07cd ffbc a79f 22bd 3aca 69bd
00000270: 584a 9c3d 5a7e a9bd c5ae a5bd 7d57 bbbd
00000280: 70a5 6e3d 8d2d 70bc 1a77 1ebc 4d3a 243d
00000290: d0d5 853d 4f5c e7bd 8049 243c b36c ba3b
000002a0: a7b9 0c3d da1a 58bc 40b2 9d3d 7375 c03c
000002b0: 60b8 6e3e 1abc 2f3d ddf1 ab3d fa29 c23d
000002c0: c364 babd ddf2 483d 8b61 b0bd 57f8 2b3d
000002d0: d88e c23c 07c2 803d e735 8e3c 5bfc 9e3d
000002e0: 2781 b83d 93cf 31bd 5ad6 863d 307c 703d
000002f0: 07ae 0f3d a06a 42be 908a fa3d b300 1a3d
00000300: 1f67 b7bd 3aee fbbc 7aad a1bc de3f a13d
00000310: 7070 c23d f30b 543c 209c ad3c 3297 83bd
00000320: 5337 643d 1af5 86bd 738d 3c3c 1af5 0a3d
00000330: ad1e 0b3d 33e0 f7bb d036 6a3d 7298 85bd
00000340: 32c6 9d3d 805e fd3b 33d0 b1bc 6710 eebb
00000350: ad91 f03d fa44 abbd 20e3 e1bc dadf 6e3c
00000360: c366 18bd 5080 803d e79a 4b3d 53b2 d13c
00000370: 0721 fb3c 7714 a5bd 10c9 01bd 23f1 133d
00000380: 33e9 a5bc f3f9 13bd b7a0 c33d 424e a33d
00000390: d76c dbbd 530d 5e3d 5737 93bd a0f8 60bd
000003a0: d314 8cbd 7f6f 88bd 2342 163d cd2d a63c
000003b0: ba74 28bd 182d bbbd 08e9 c7bd cd39 9cbd
000003c0: fd7c 3bbd 9ae1 99bc 9d63 623d 703a b53d
000003d0: 3ab1 4abd 2a00 45bd d4ca 8d3c 1d00 313d
000003e0: 4d64 e6bc 0dc9 033d 4d00 4abc 2569 903d
000003f0: 5308 8cbc 42a2 1cbe 1a4b d2bb 47c8 f7bd

layers.0.bias f4 [20]
0.04097333 -0.00442971 0.07241354 -0.020078028 0.052898135 0.0359023 0.05207342 -0.04622948
-0.05895194 0.002199161 -0.0859473 0.021962393 0.073571466 0.0051272633 -0.090692334 -0.003758502
0.0653558 -0.08411702 0.06669225 -0.051333822
00000000: a7d3 273d 1a27 91bb 8d4d 943d ad7a a4bc
00000010: b7ab 583d 4a0e 133d f04a 553d 205b 3dbd
00000020: 9777 71bd cd1f 103b 2305 b0bd 7aea b33c
00000030: a3ac 963d 9a02 a83b e7bc b9bd 3351 76bb
00000040: 43d9 853d 8b45 acbd f295 883d 6a43 52bd

layers.1.weight f4 [20, 20]
-0.048573803 -0.038259394 -0.110906355 0.17958379 0.13774292 -0.17097211 0.19354466 0.0013156339
0.00082574977 0.29882985 -0.02784802 -0.036309212 0.087084085 -0.02799843 0.11965212 -0.15573812
-0.28119346 -0.08845817 -0.057137713 0.07358337 0.11820031 0.040085934 0.3635778 0.055378787
0.049991317 -0.24001804 0.20881662 0.0015066242 -0.052854784 0.07096136 -0.04150767 0.12376978
-0.16265848 -0.00043711066 -0.060078464 -0.21980584 0.01120925 0.13977525 -0.006060824 0.04176312
-0.030090638 0.17517787 0.102737166 -0.067317866 -0.10662134 0.0596574 0.06489501 0.017063977
0.03906987 -0.029947251 0.10732267 0.09233389 0.2576817 -0.18914841 0.07623674 -0.2786736
-0.18721071 0.028859824 0.24534857 0.04418172 -0.17874788 0.07965348 0.15584508 0.18825312
-0.10828824 -0.021225356 0.1455691 -0.09527541 0.16466235 0.12023788 -0.28990158 -0.12532848
0.037331153 -0.1331207 0.12854196 -0.114963084 0.26393983 0.15248853 -0.006946005 -0.06028129
0.09778842 -0.059550107 -0.08151577 0.21686304 -0.12071296 -0.21529289 -0.1456028 -0.059824504
-0.17969139 -0.21832718 -0.085352816 -0.11491521 0.026910812 0.009966284 -0.21029921 -0.3144411
0.03200619 -0.20980734 -0.15253977 -0.206228 0.20668288 0.15669104 0.122303784 0.24228498
0.042216368 -0.07544503 -0.021704335 0.07576493 -0.19625923 0.2637154 -0.037817895 -0.084238596
-0.24220294 -0.07574322 0.08909608 -0.070232 0.094297916 -0.121209666 0.12220687 0.17991102
-0.04401607 0.01489623 0.029934216 0.008069839 0.26584598 -0.10706023 0.15571848 -0.122098215
-0.30067915 -0.1399773 -0.15875882 -0.037840627 0.09841424 -0.124659084 0.09961371 0.17188999
0.06160734 -0.08807118 -0.1485009 0.03083023 0.21231553 -0.14412501 0.13567394 -0.04288517
0.2164731 0.1860665 -0.10773333 0.11204794 0.10537634 -0.15976763 -0.20278382 -0.15892392
0.25066608 -0.1858576 0.08651461 -0.14031829 0.081721365 0.14418635 -0.018657602 -0.017130217
0.009946076 0.022155674 0.012979925 0.046251677 -0.10376968 -0.17077048 -0.14502768 -0.1954692
-0.17793913 -0.101428054 -0.020925285 -0.1893844 0.151976 -0.16163051 0.12730639 -0.104363516
0.19641799 0.19864315 0.012577184 0.09029984 0.07545362 -0.13601369 0.35181138 -0.10080392
-0.15314741 0.009375311 0.2251645 -0.19989523 0.021933503 0.23710579 0.21335718 0.16626506
0.08773305 0.20078835 0.21421273 -0.05619373 -0.091179505 -0.010781363 -0.162285 -0.27666894
0.014016546 -0.1794504 0.19217752 -0.04503136 -0.06287491 -0.17988789 0.14886168 -0.19248217
0.19752194 -0.13290024 0.10842215 -0.070068836 0.03893823 -0.20078973 0.045683786 0.04570993
-0.20526811 -0.19813506 0.18413542 0.2888413 -0.07375881 -0.09413668 0.12083034 0.0837661
0.21176577 -0.005633267 0.17975035 0.21619423 0.065356016 -0.19209756 -0.10124192 0.096770965
0.19375333 0.0885766 -0.19776133 -0.016881287 -0.0034379214 0.11057138 -0.07618126 0.060731478
-0.20249929 -0.032342948 -0.28413627 0.29075766 -0.27539137 -0.1007773 -0.16421416 0.086326174
-0.08417994 0.0679039 -0.14867005 0.15276971 0.047570765 -0.110337906 -0.06239064 0.2753308
00000000: 53f5 46bd e2b5 1cbd df22 e3bd d0e4 373e
00000010: 7b0c 0d3e 5013 2fbe 9230 463e 5971 ac3a
00000020: 2177 583a 3a00 993e 8821 e4bc f8b8 14bd
00000030: 2459 b23d f75c e5bc 2c0c f53d d079 1fbe
00000040: 97f8 8fbe 8f29 b5bd 3c09 6abd e1b2 963d
00000050: 0113 f23d 2631 243d df26 ba3e ded4 623d
00000060: b2c3 4c3d 4ac7 75be 06d4 553e eb79 c53a
00000070: 427e 58bd 3154 913d f203 2abd 037b fd3d
00000080: f28f 26be 002c e5b9 d614 76bd c814 61be
00000090: 01a7 373c 3e21 0f3e e099 c6bb ce0f 2b3d
000000a0: a480 f6bc d461 333e dd67 d23d f3dd 89bd
000000b0: 4a5c dabd 515b 743d ade7 843d c1c9 8b3c
000000c0: ba07 203d f053 f5bc fdcb db3d 8d19 bd3d
000000d0: dbee 833e 1fb0 41be 0222 9c3d 4eae 8ebe
000000e0: 2ab4 3fbe 706b ec3c a83c 7b3e e4f7 343d
000000f0: af09 37be 5d21 a33d da95 1f3e 6dc5 403e
00000100: 3ac6 ddbd cce0 adbc 1110 153e c11f c3bd
00000110: 3f9d 283e 473f f63d fb6d 94be 1c56 00be
00000120: 8de8 183d cb50 08be 81a0 033e c471 ebbd
00000130: 1f23 873e f425 1c3e 509b e3bb 84e9 76bd
00000140: 4c45 c83d d0ea 73bd bdf1 a6bd 5811 5e3e
00000150: 5b38 f7bd bd75 5cbe e718 15be 8a0a 75bd
00000160: 0501 38be 2991 5fbe 75cd aebd aa58 ebbd
00000170: 1074 dc3c a049 233c ad58 57be 6dfe a0be
00000180: ec18 033d bcd7 56be 6333 1cbe 6f2d 53be
00000190: ada4 533e 9e73 203e 687a fa3d 8e19 783e
000001a0: 12eb 2c3d ed82 9abd 4acd b1bc a52a 9b3d
000001b0: 2ef8 48be b405 873e f0e6 1abd 4985 acbd
000001c0: 0c04 78be 431f 9bbd 0178 b63d cbd5 8fbd
000001d0: 441f c13d c63c f8bd 9847 fa3d 983a 383e
000001e0: 324a 34bd 510f 743c 9a38 f53c 5c37 043c
000001f0: f71c 883e 6542 dbbd aa74 1f3e a10e fabd
00000200: 9ef2 99be 3656 0fbe ac91 22be c6fe 1abd
00000210: 688d c93d 434d ffbd 4602 cc3d ee03 303e
00000220: fa57 7c3d aa5e b4bd 9f10 18be ae8f fc3c
00000230: 3e69 593e 8295 13be 1cee 0a3e 5ca8 2fbd
00000240: 20ab 5d3e 3788 3e3e 4ba3 dcbd 6479 e53d
00000250: 8dcf d73d 209a 23be 90a6 4fbe f4bc 22be
00000260: 4e57 803e 7451 3ebe 922e b13d 99af 0fbe
00000270: 885d a73d 96a5 133e d4d7 98bc ab54 8cbc
00000280: def4 223c d17f b53c c0a9 543c 6672 3d3d
00000290: 3385 d4bd 75de 2ebe 2382 14be 1429 48be
000002a0: ad35 36be 83b9 cfbd 816b abbc fced 41be
000002b0: 999f 1b3e 7882 25be 9b5c 023e 8abc d5bd
000002c0: cc21 493e 1c69 4b3e 8810 4e3c 1fef b83d
000002d0: 6d87 9a3d 2c47 0bbe 9f20 b43e 4972 cebd
000002e0: add2 1cbe e89a 193c 8691 663e 56b1 4cbe
000002f0: e4ad b33c dccb 723e 4e7a 5a3e 6341 2a3e
00000300: 63ad b33d 769b 4d3e 955a 5b3e 662b 66bd
00000310: 52bc babd 50a4 30bc 0a2e 26be 8da7 8dbe
00000320: a8a5 653c d8c1 37be 2fca 443e ce72 38bd
00000330: 90c4 80bd 8834 38be 326f 183e 0c1a 45be
00000340: 3143 4a3e 0017 08be 6f0c de3d 4080 8fbd
00000350: b27d 1f3d d39b 4dbe ec1e 3b3d 563a 3b3d
00000360: ce31 52be ebe3 4abe ff8d 3c3e 02e3 933e
00000370: dc0e 97bd bbca c0bd e675 f73d 908d ab3d
00000380: 20d9 583e 4597 b8bb 7a10 383e 0562 5d3e
00000390: 60d9 853d 39b5 44be ec57 cfbd db2f c63d
000003a0: 4667 463e a667 b53d f281 4abe a04a 8abc
000003b0: c04e 61bb 3f73 e23d ec04 9cbd 92c1 783d
000003c0: f95b 4fbe 0a7a 04bd 4f7a 91be 30de 943e
000003d0: 1900 8dbe 5464 cebd c227 28be c7cb b03d
000003e0: 8866 acbd 3311 8b3d f63c 18be aa6f 1c3e
000003f0: 90d9 423d d7f8 e1bd 548d 7fbd 29f8 8c3e

layers.1.bias f4 [20]
-0.15036182 -0.2156101 -0.090341635 -0.16735244 0.12892501 -0.09918085 -0.033571374 -0.1689213
-0.2069135 0.2162065 0.054985106 0.19916072 -0.15437512 -0.12395766 -0.03603668 -0.08957112
-0.11381633 0.1818421 0.15696448 0.13450983
00000000: 73f8 19be e5c8 5cbe 0905 b9bd 705e 2bbe
00000010: eb04 043e 541f cbbd 2382 09bd b5f9 2cbe
00000020: 22e1 53be 3d65 5d3e 1038 613d caf0 4b3e
00000030: 8314 1ebe 83dd fdbd 339b 13bd 1071 b7bd
00000040: 8918 e9bd d134 3a3e 4cbb 203e f2bc 093e

layers.2.weight f4 [20, 20]
0.18184134 -0.02080983 -0.024830123 0.17753121 0.13438061 0.0023115557 -0.080415815 -0.21209134
0.19819877 -0.14015822 -0.14165857 -0.20112555 0.12355088 -0.29762155 0.15262257 -0.060573857
-0.15838927 0.1035515 0.10684786 0.09918602 -0.12438144 0.12789139 0.18056454 -0.20400925
-0.0804228 -0.011710224 0.20685053 0.14159927 -0.27689698 -0.23074463 0.21715839 -0.036893032
0.20777895 0.11107586 0.30577973 -0.106713526 -0.223334 -0.1514163 -0.07145544 0.17027858
0.08305644 0.0802376 0.19057171 -0.013013036 0.04212729 -0.19161639 -0.04990295 -0.15347613
0.04753066 -0.093367994 -0.108816326 -0.30510268 -0.16431597 -0.08923869 0.07129859 -0.19649291
-0.04695677 0.21720386 0.09315112 0.064537294 -0.13833708 -0.07656901 -0.1034038 0.19008337
0.2756361 -0.26710048 -0.050893836 -0.113093644 -0.21077059 0.06785044 0.13263749 0.0041458085
-0.10393265 0.10874707 -0.065894395 0.111810766 0.06995275 0.19163653 -0.21190864 -0.016158044
-0.09255661 0.18264581 -0.11571247 0.025198616 -0.12063445 0.026320968 0.103721134 -0.00082122535
0.2827529 -0.38623497 0.16908953 -0.056301884 0.19126602 0.07572782 -0.14459904 0.06088688
-0.043920755 0.04587282 -0.17980492 -0.18544585 -0.2197386 0.1900319 0.0841129 -0.13548559
-0.16061395 -0.11232122 -0.17645384 -0.024913281 -0.08509464 0.10729045 -0.022686467 0.087842844
-0.18930617 0.20861065 0.066565424 0.2033058 -0.03972361 -0.30892566 0.15632075 0.16576253
0.16935904 0.018325761 0.012964683 0.029418876 -0.084969796 0.15689452 0.1430464 0.098615125
0.0034475997 0.07388284 0.1439044 -0.094240196 0.21130566 0.15440151 -0.17067194 -0.0020022127
0.13877247 0.20819944 -0.045708016 0.21298955 0.0126975775 0.054148134 -0.03557692 -0.037372895
-0.057769723 0.17801347 0.2860063 -0.32072926 -0.081172235 0.18656276 0.27978292 0.10268723
0.13499743 0.17427713 0.18648964 0.050301604 -0.225705 -0.047468636 -0.12549125 0.017590664
-0.15832663 0.21822135 0.22048591 0.12586534 -0.062597446 0.08403776 -0.21720636 0.004386209
0.13732822 -0.03066811 0.1364195 -0.032828636 0.019616626 0.031453155 -0.14088804 0.11450773
0.18551432 -0.024371933 -0.089116044 -0.20255567 -0.30365643 0.009203061 -0.10337314 -0.19624858
-0.31795198 -0.16814281 -0.02391415 -0.026971795 -0.16150069 0.27028477 0.08725231 0.2181291
-0.12319295 0.04168447 0.20677808 -0.060467366 0.17866173 -0.01563517 0.18823849 -0.13242805
0.06405689 -0.3264098 0.0065520853 0.2116077 -0.08430694 -0.13511428 0.1682826 0.0542261
-0.083162315 -0.20735934 0.12031391 -0.09009165 -0.18171819 0.2083171 0.09133568 -0.05619157
0.3277213 -0.00020597097 0.1405228 -0.024445904 -0.10652964 -0.05830295 -0.104288906 -0.045875948
-0.034754403 0.032168537 0.06842698 0.2488249 -0.022277065 -0.12834412 -0.10097016 0.31377715
-0.20732579 0.01468277 0.07821073 0.04292962 -0.20514035 0.06427619 -0.13923398 -0.16068423
0.14788468 -0.107408606 0.0457578 0.17314559 0.28251806 0.2169418 0.12208044 0.025755674
-0.061545312 0.0005162202 0.20340645 0.10615788 -0.21234748 -0.036305882 -0.00035621226 0.11090788
00000000: 9e34 3a3e 6079 aabc 8b68 cbbc beca 353e
00000010: 129b 093e 787d 173b 0cb1 a4bd 792e 59be
00000020: 9ef4 4a3e a385 0fbe f20e 11be dbf3 4dbe
00000030: 3e08 fd3d da61 98be 1749 1c3e 4b1c 78bd
00000040: cc30 22be cf12 d43d 0dd3 da3d 0a22 cb3d
00000050: b2bb febd f6f5 023e e9e5 383e cde7 50be
00000060: b5b4 a4bd 3ddc 3fbc a0d0 533e 66ff 103e
00000070: 71c5 8dbe 5248 6cbe c55e 5e3e 261d 17bd
00000080: 01c4 543e be7b e33d 298f 9c3e 9f8c dabd
00000090: abb1 64be e00c 1bbe 3b57 92bd 825d 2e3e
000000a0: 7f19 aa3d 9c53 a43d 3b25 433e a134 55bc
000000b0: aa8d 2c3d 1637 44be 0967 4cbd d928 1dbe
000000c0: 82af 423d b837 bfbd 18db debd 6b36 9cbe
000000d0: 7242 28be c6c2 b6bd ff04 923d 7035 49be
000000e0: be55 40bd b06a 5e3e 04c6 be3d 212c 843d
000000f0: 3ca8 0dbe 37d0 9cbd 5fc5 d3bd 37a5 423e
00000100: 2d20 8d3e 65c1 88be 0e76 50bd a49d e7bd
00000110: 3fd4 57be 2cf5 8a3d 1fd2 073e 90d9 873b
00000120: a4da d4bd c9b6 de3d a4f3 86bd 0bfd e43d
00000130: 6343 8f3d 5e3c 443e 94fe 58be e05d 84bc
00000140: 528e bdbd 8107 3b3e a9fa ecbd 546d ce3c
00000150: 320f f7bd 129f d73c bf6b d43d 8047 57ba
00000160: fdc4 903e 97c0 c5be ce25 2d3e ce9c 66bd
00000170: 3ddb 433e 3017 9b3d c511 14be 8564 793d
00000180: 40e6 33bd 23e5 3b3d c81e 38be 84e5 3dbe
00000190: 2803 61be b997 423e 6243 ac3d bcbc 0abe
000001a0: fc77 24be ab08 e6bd 51b0 34be f016 ccbc
000001b0: 1946 aebd 18bb db3d f8d8 b9bc f3e6 b33d
000001c0: 7ad9 41be 089e 553e 7453 883d 652f 503e
000001d0: 39b5 22bd 812b 9ebe 8c12 203e a7bd 293e
000001e0: 756c 2d3e e81f 963c d269 543c dbff f03c
000001f0: a504 aebd f5a8 203e c17a 123e baf6 c93d
00000200: 20f1 613b e34f 973d ad5b 133e 0101 c1bd
00000210: 8360 583e 6e1b 1e3e a0c4 2ebe 8e37 03bb
00000220: 5f1a 0e3e 3c32 553e 5438 3bbd ef19 5a3e
00000230: 8009 503c 6fca 5d3d 1bb9 11bd 5214 19bd
00000240: f29f 6cbd 2a49 363e 6b6f 923e a036 a4be
00000250: a13d a6bd 4f0a 3f3e b53f 8f3e af4d d23d
00000260: c43c 0a3e b475 323e 24f7 3e3e 0e09 4e3d
00000270: 361f 67be 796e 42bd c780 00be 4c1a 903c
00000280: 6020 22be 6b75 5f3e 0fc7 613e d8e2 003e
00000290: 1733 80bd fd1b ac3d 586b 5ebe 30ba 8f3b
000002a0: c59f 0c3e b03b fbbc 8eb1 0b3e 5277 06bd
000002b0: 0cb3 a03c 06d5 003d f444 10be 0783 ea3d
000002c0: 77f7 3d3e a6a7 c7bc 7982 b6bd c16a 4fbe
000002d0: db78 9bbe 70c8 163c 4cb5 d3bd 63f5 48be
000002e0: 9aca a2be a12d 2cbe 9ce7 c3bc f4f3 dcbc
000002f0: 7060 25be c462 8a3e 57b1 b23d 3c5d 5f3e
00000300: 964c fcbd 56bd 2a3d a2bd 533e a1ac 77bd
00000310: 1af3 363e 5415 80bc 97c1 403e 389b 07be
00000320: 4230 833d 2f1f a7be e0b2 d63b b0af 583e
00000330: 1ea9 acbd 665b 0abe 4652 2c3e 301c 5e3d
00000340: 0151 aabd 0256 54be 2467 f63d f981 b8bd
00000350: 5514 3abe 1451 553e 330e bb3d 2229 66bd
00000360: 16cb a73e e9f9 57b9 35e5 0f3e c742 c8bc
00000370: 362c dabd 13cf 6ebd 6c95 d5bd 6be8 3bbd
00000380: a25a 0ebd 28c3 033d 7223 8c3d f4cb 7e3e
00000390: 647e b6bc a46c 03be 71c9 cebd 66a7 a03e
000003a0: 364d 54be 0090 703c f22c a03d f8d6 2f3d
000003b0: 5010 52be 3ca3 833d 5a93 0ebe 688a 24be
000003c0: 156f 173e 0bf9 dbbd 886c 3b3d 144d 313e
000003d0: 35a6 903e fe25 5e3e 4f05 fa3d 90fd d23c
000003e0: f016 7cbd f452 073a c849 503e 4d69 d93d
000003f0: 9e71 59be 7ab5 14bd 00c2 bab9 ac23 e33d

layers.2.bias f4 [20]
-0.05988885 0.2098438 -0.017820127 -0.082122624 0.059411015 -0.12966895 0.120388255 -0.037256863
-0.1618223 -0.13178319 0.21668604 -0.15228975 -0.20071214 0.17036611 -0.2218686 0.18551153
0.1697691 0.16381244 0.17009456 -0.085294425
00000000: 034e 75bd 4be1 563e 84fb 91bc e82f a8bd
00000010: f758 733d f0c7 04be 1e8e f63d a79a 18bd
00000020: bfb4 25be 2cf2 06be f2e2 5d3e d8f1 1bbe
00000030: 7c87 4dbe 7474 2e3e 8631 63be bcf6 3d3e
00000040: f3d7 2d3e 73be 273e 452d 2e3e d8ae aebd

layers.3.weight f4 [2, 20]
0.6992256 -0.08871158 0.058754884 -0.056244 -0.08105599 -0.1611706 0.25852796 0.2171603
-0.3185771 0.05069989 0.11019518 0.095185824 -0.45739135 -0.08626763 0.5009927 -0.12056286
-0.66508895 -0.22346023 0.23142701 -0.10152053 -0.39873618 0.37672797 -0.31320688 -0.2174311
0.041795015 0.19967425 0.51828176 0.5948621 -0.23257944 0.019470915 0.1462827 -0.10181993
0.29428622 0.23526192 -0.022457287 0.19223611 0.124419555 -0.008527979 0.060035132 -0.06586652
00000000: 7300 333f 6bae b5bd f6a8 703d 1c60 66bd
00000010: af00 a6bd e809 25be c75d 843e 455f 5e3e
00000020: 8a1c a3be b0aa 4f3d 03ae e13d c9f0 c23d
00000030: 332f eabe 15ad b0bd 0f41 003f a9e9 f6bd
00000040: 4543 2abf c2d2 64be 34fb 6c3e ffe9 cfbd
00000050: 2627 ccbe 7de2 c03e a75c a0be 42a6 5ebe
00000060: 4031 2b3d 6877 4c3e 1dae 043f e248 183f
00000070: 4e29 6ebe 7881 9f3c 22cb 153e f886 d0bd
00000080: afac 963e 80e8 703e 58f8 b7bc 8bd9 443e
00000090: aecf fe3d f0b8 0bbc 66e7 753d 07e5 86bd

layers.3.bias f4 [2]
0.072033755 -0.14737776
00000000: 6f86 933d 32ea 16be
