A2/part2/sa_model_params.pt (torch, 24992 bytes, 8 tensors)

layers.0.weight f4 [32, 100]
0	0x3d1555c7	0.036458757
1	0xbd167803	-0.036735546
2	0x3dc16b7b	0.094443284
3	0xbc40bb40	-0.011763394
4	0x3c28b427	0.010296858
5	0x3dc32d55	0.09530131
6	0x3cb89c5a	0.022535492
7	0xba35659a	-0.0006919742
8	0xbc42c790	-0.0118884
9	0x3e0015b3	0.12508278
10	0x3d4ff657	0.050772037
11	0x3dc601a3	0.09668281
12	0xbe3b4ad5	-0.18290265
13	0x3ce3ef88	0.027824178
14	0xbd3aaef3	-0.045577
15	0x3dbfc740	0.09364176
16	0x3cb3140c	0.021860145
17	0x3d068763	0.03284396
18	0xbc605f80	-0.013694644
19	0xbc8f7ef8	-0.017516598
20	0xbe3e5ca0	-0.18590021
21	0x3c2a59e7	0.010397411
22	0x3d9f7e05	0.07787708
23	0xbd6c7fd7	-0.057739105
24	0xbc60dc5a	-0.013724411
25	0xbb936467	-0.004498053
26	0x3d783990	0.06060177
27	0xbd6f2e4a	-0.058393754
28	0xbc9702c0	-0.018433928
29	0xbd84ed8d	-0.06490622
30	0x3e33d389	0.17561163
31	0x3d89d17d	0.0672941
32	0xbd12b7fd	-0.035819996
33	0x3e377fc4	0.17919832
34	0xbbb0b750	-0.0053929463
35	0xbd9e87ef	-0.07740771
36	0xbc8f59c7	-0.017498864
37	0xbd80e71a	-0.06294079
38	0xbdc1bd45	-0.094599284
39	0xbd708370	-0.0587191
40	0xbd2d2a3a	-0.0422766
41	0x3da7a32b	0.08185419
42	0xbd93f023	-0.07223537
43	0x3e20b4f7	0.15694033
44	0xbe25246c	-0.16127175
45	0xbe00256b	-0.12514274
46	0x3e9c8d70	0.30576658
47	0x3d1d510a	0.038407363
48	0xbc912853	-0.017719423
49	0x3c008540	0.007844269
50	0xbb7dda33	-0.0038734793
51	0x3e4af7bc	0.19821066
52	0xbd69af0d	-0.057051707
53	0xbdc2985a	-0.09501715
54	0x3c3cee30	0.011531398
55	0x3a8b4a67	0.0010627032
56	0xbd98305a	-0.07431097
57	0x3e05908f	0.13043426
58	0xbd34b10d	-0.04411416
59	0x3daa3b45	0.08312086
60	0xbe40e254	-0.18836337
61	0xbdca1510	-0.098672986
62	0xbd7d4fc7	-0.06184366
63	0x3db32708	0.08747679
64	0x3e45735a	0.19282284
65	0xbdf01cc0	-0.117242336
66	0xbdbf4455	-0.09339205
67	0xbda4951b	-0.08036252
68	0x3d8c2b6b	0.06844219
69	0xbd47d537	-0.048787322
70	0x3c0a2168	0.008430816
71	0x3ddf0163	0.10888936
72	0x3dae5700	0.08512688
73	0x3dccbd8b	0.0999709
74	0xbd122cba	-0.035687186
75	0xbd52a8a7	-0.05143037
76	0xbc81b213	-0.015831983
77	0x3d9a36a2	0.07529952
78	0x3e069c8a	0.13145652
79	0xbe2fe8e2	-0.17178681
80	0xbb7d7833	-0.003867638
81	0xbc35c70d	-0.011094821
82	0xbe393732	-0.18087462
83	0x3c82ed3a	0.015982259
84	0xbe6b9466	-0.23005828
85	0xbe93aecc	-0.28844297
86	0xbac93e67	-0.001535368
87	0x3d435713	0.047690462
88	0x3b983d1a	0.0046459557
89	0x3b43f79a	0.002990222
90	0x3c7dfef3	0.015502679
91	0x3c7aeca7	0.015315211
92	0xbdad0f63	-0.084502004
93	0xbdc0e94d	-0.094194986
94	0xbc735798	-0.014852427
95	0xbd945eed	-0.07244668
96	0xbd1acca0	-0.0377928
97	0xbd85e67d	-0.06538103
98	0xbd154cba	-0.036450125
99	0x3e1bf61d	0.15230604
100	0x3c7b94b3	0.015355277
101	0xbd0b3b50	-0.03399211
102	0xbda32e73	-0.07967844
103	0x3e3355a8	0.17513144
104	0xbd246717	-0.040137377
105	0xbd2435fd	-0.04009055
106	0xbd77cb3d	-0.060496558
107	0x3ad5f740	0.0016324297
108	0x3c78a58d	0.015176189
109	0xbdd2f812	-0.10301222
110	0xbd86e3aa	-0.06586392
111	0xbc9bbd00	-0.01901102
112	0x3caece73	0.021338677
113	0x3befb433	0.0073151826
114	0xbc595c73	-0.0132666705
115	0xbe86a0cf	-0.26294562
116	0xbddd25af	-0.10798203
117	0x3d8751ed	0.06607423
118	0xbc98923a	-0.018624414
119	0xbe2d6d90	-0.16936326
120	0x3d20b0a0	0.039230943
121	0x3d29a577	0.041417565
122	0x3dade727	0.084913544
123	0xbdc9755f	-0.0983684
124	0xbd09afa7	-0.03361478
125	0xbd9d17cd	-0.07670555
126	0xbdb3edc7	-0.08785587
127	0xbd7b55f0	-0.061361253
128	0xbd928e78	-0.0715608
129	0xbe00dd5b	-0.1258444
130	0xbd09988a	-0.03359274
131	0xbd9a4045	-0.0753179
132	0xbd6bac73	-0.057537507
133	0x3dbf5dcb	0.093440615
134	0xbd7dbb0a	-0.061945952
135	0x3c8d52c0	0.017251372
136	0x3c89f5fa	0.016840924
137	0xbd92c692	-0.071667805
138	0xbe4aaed2	-0.19793251
139	0x3d137bea	0.036006846
140	0x3cc37e40	0.023863912
141	0x3e432934	0.19058686
142	0x3daf31f2	0.08554448
143	0xbdf774c5	-0.12082819
144	0x3c1f97f3	0.009740817
145	0xbd9fec22	-0.07808711
146	0xbda49e9d	-0.080380656
147	0x3ca2b200	0.019860268
148	0x3cf46140	0.029831529
149	0xbd83c05b	-0.06433173
150	0x3d9a4cc5	0.07534174
151	0x3ce04fa7	0.027381731
152	0xbccb9e14	-0.024855651
153	0x3d7d9417	0.061908808
154	0x3d0a01ec	0.03369324
155	0x3d8bccf7	0.06826203
156	0xbe173186	-0.14764985
157	0x3dc9494f	0.09828436
158	0x3d943015	0.072357334
159	0x3e1986db	0.1499285
160	0xbe0a14d4	-0.13484508
161	0x3cd0db4d	0.025495196
162	0xbdb38c08	-0.08766943
163	0xbd4c3ce0	-0.049862742
164	0x3dec597f	0.115405075
165	0x3dde7b9f	0.108634226
166	0xbe29ab90	-0.16569352
167	0x3ca716a8	0.020396546
168	0x3d05e9fd	0.03269385
169	0xbd87905f	-0.066193335
170	0x3d70f643	0.058828603
171	0x3dacfd4f	0.08446752
172	0x3db16640	0.08662081
173	0xbd25b910	-0.040459692
174	0xbb8c7600	-0.0042865276
175	0xbc45594d	-0.012045217
176	0x3dca3e4a	0.09875162
177	0x3dcc8eb5	0.09988157
178	0x3d996b72	0.07491197
179	0xbcbe5c33	-0.023237323
180	0x3c313b00	0.010817289
181	0x3cb052f4	0.02152393
182	0x3d3ada9a	0.04561863
183	0x3cb449a7	0.022007776
184	0xbd97d2d0	-0.07413256
185	0x3dbf0427	0.09326964
186	0xbb25c233	-0.0025292754
187	0xbe19bf8f	-0.1501448
188	0x3d07d3ca	0.033160962
189	0xbcadd26d	-0.021218503
190	0x3d2d0f2a	0.04225079
191	0xbe2a462c	-0.16628331
192	0x3d8974e0	0.06711745
193	0xbd9f9db6	-0.07793753
194	0xbd2a39da	-0.041559078
195	0xbdb121c3	-0.08649018
196	0x3d570de7	0.052503493
197	0xbd910a1f	-0.070820086
198	0xbd9e485a	-0.07728644
199	0xbd26490a	-0.040597
200	0x3cd7baed	0.02633425
201	0x3d16197d	0.0366454
202	0xbd22d0fa	-0.039750077
203	0x3e34a37a	0.17640486
204	0x3ce69da8	0.028151348
205	0xb8490000	-4.7922134e-05
206	0x3e34c355	0.17652638
207	0xbc32d433	-0.01091485
208	0xbd101e87	-0.035185363
209	0xbe2f6c01	-0.17131044
210	0x3da1148a	0.07865246
211	0x3d8733b5	0.06601659
212	0xbcce80a7	-0.02520783
213	0x3cdf5dba	0.027266372
214	0x3c041333	0.008061218
215	0x3de13978	0.109972894
216	0xbd0fa526	-0.035069607
217	0x3d92841f	0.07154106
218	0xbc4aa767	-0.012369013
219	0x3d45b6a7	0.048269894
220	0xbe48c54d	-0.19606514
221	0x3d98e2b0	0.07465112
222	0xbdf2cba8	-0.118552506
223	0x3da25f15	0.07928292
224	0x3d8bb305	0.06821255
225	0x3d7052c7	0.058672693
226	0x3cc9feb3	0.024657583
227	0x3dc891dd	0.09793446
228	0x3c8c4d28	0.017126635
229	0x3db00902	0.08595468
230	0x3d9d4e75	0.0768098
231	0xbc38931a	-0.0112655405
232	0x3cbb9100	0.02289629
233	0x3db02442	0.08600666
234	0x3c5fbe67	0.013656235
235	0x3c0ed667	0.00871811
236	0x3d22af07	0.0397177
237	0xbd9252c3	-0.07144692
238	0xbcd50f18	-0.026008174
239	0xbd762940	-0.060097933
240	0x3d37cbd7	0.04487213
241	0xbd34b4e7	-0.044117834
242	0xbe0f303b	-0.13983242
243	0x3e3c72a0	0.18403101
244	0xbc93faf8	-0.018064007
245	0xbe2ba901	-0.16763689
246	0x3def342d	0.116798736
247	0x3cfea68d	0.031085277
248	0xbc9add6d	-0.018904412
249	0x3c29de5a	0.010367954
250	0xbd7a83d7	-0.06116089
251	0x3d515e83	0.051115524
252	0x3ddd5ae0	0.10808349
253	0xbd6e81a7	-0.058229115
254	0xbd9a0d60	-0.07522082
255	0xbd0fe05a	-0.035126068

layers.0.bias f4 [32]
0	0xbc9ab300	-0.018884182
1	0xbba36bcd	-0.004987216
2	0x3daafc82	0.08348943
3	0x3d91661b	0.07099553
4	0x3dc9a838	0.09846538
5	0xbd6a6940	-0.05722928
6	0x3d2788b3	0.04090185
7	0x3d2c2fea	0.042037882
8	0x3cdd4b33	0.027013397
9	0x3d9ab5ef	0.07554232
10	0xbd5f7670	-0.05455631
11	0x3d96f497	0.073708706
12	0x3c6926f3	0.014230478
13	0xbcfa83e7	-0.030580474
14	0xbc581f40	-0.013191044
15	0x3c15539a	0.00911417
16	0x3d604663	0.054754626
17	0x3d167aaa	0.036738075
18	0xbd7b1c23	-0.06130613
19	0xbd4db053	-0.050216984
20	0x3d80f982	0.0629759
21	0x3dbf6212	0.09344877
22	0xbdc8f64a	-0.09812601
23	0xbd02288a	-0.031776942
24	0x3cb77f13	0.02239946
25	0xbd6544fa	-0.055973984
26	0xbd8a3007	-0.06747442
27	0xbc5c8940	-0.013460457
28	0x3b5db533	0.0033829927
29	0xbcdfb067	-0.027305795
30	0xbdaf9a1b	-0.08574315
31	0x3d9733aa	0.07382901

layers.1.weight f4 [32, 32]
0	0x3dc12bb7	0.09432166
1	0x3e1f8c72	0.1558092
2	0xbc7df2c7	-0.015499777
3	0xbd384498	-0.04498729
4	0x3e8cf4c8	0.27530503
5	0xbde53a8f	-0.1119281
6	0x3d88dd37	0.066828184
7	0xbda2f8e2	-0.07957627
8	0x3e0102ae	0.12598678
9	0xbeeb3bfc	-0.45944202
10	0x3e824c44	0.2544881
11	0xbd4c5e1a	-0.04989443
12	0xbd6fbfeb	-0.058532637
13	0xbd8d45b2	-0.06898059
14	0x3ddfb784	0.10923675
15	0x3e1dfcf4	0.15428525
16	0x3dee64a1	0.11640287
17	0x3d9e7518	0.077371776
18	0xbdc0d539	-0.09415669
19	0x3e2c7085	0.16839798
20	0x3e014054	0.12622195
21	0x3e2d407f	0.16919135
22	0x3d319905	0.04335882
23	0x3d218c6e	0.039440565
24	0x3ecd2a7b	0.40071473
25	0xbe9d5aa2	-0.3073321
26	0x3d4b268e	0.049597315
27	0x3e3635a8	0.17793906
28	0xbb589080	-0.0033045113
29	0xbb82fd90	-0.003997512
30	0xbc4bca98	-0.012438439
31	0x3e229372	0.15876558
32	0xbda0c652	-0.078503266
33	0x3e00d9da	0.12583104
34	0x3d542ecb	0.051802438
35	0xbe4b3ad3	-0.19846658
36	0xbe37feba	-0.17968264
37	0x3ddf7e39	0.10912747
38	0xbd1feba0	-0.03904307
39	0x3e28695c	0.16446441
40	0xbe0c2970	-0.13687682
41	0xbe266547	-0.16249572
42	0xbd86cb30	-0.06581724
43	0xbd211727	-0.03932872
44	0x3e557385	0.20844848
45	0x3e8037fc	0.25042713
46	0x3d55296e	0.052041464
47	0xbd9a479e	-0.07533191
48	0xbe244d16	-0.16045031
49	0x3bf18c10	0.007371433
50	0x3e98a745	0.29815117
51	0xbd679e0a	-0.056547202
52	0xbdec576a	-0.115401104
53	0xbd45a41e	-0.048252217
54	0x3eab283e	0.3342914
55	0xbc9c31fc	-0.019066803
56	0xbd8f4d23	-0.069971345
57	0x3d41f3de	0.04735171
58	0x3e2244a0	0.15846491
59	0xbd6cab7c	-0.057780728
60	0x3de2b332	0.11069335
61	0x3e29dae6	0.1658741
62	0xbe28439a	-0.16432038
63	0x3de8fba2	0.1137612
64	0x3eb8fd15	0.36130586
65	0x3cf7ebd4	0.030263819
66	0x3e2bc15e	0.16772982
67	0xbd9a571b	-0.07536145
68	0xbe109cfc	-0.14122385
69	0x3e695678	0.22786891
70	0x3cfa40cd	0.030548478
71	0x3dea90a2	0.11453368
72	0xbb17cbe0	-0.002316229
73	0x3dc7114d	0.09720097
74	0xbd97e471	-0.074166186
75	0xbe1db98a	-0.15402809
76	0x3ca551c0	0.020180583
77	0x3e395732	0.18099669
78	0x3d9e3e47	0.07726722
79	0x3e679722	0.22616246
80	0xbe845f6d	-0.25854054
81	0xbe04d4ba	-0.12971774
82	0xbdbbb36a	-0.0916508
83	0xbe6f811c	-0.23389095
84	0x3bd84b50	0.006600775
85	0x3da13b7c	0.07872674
86	0xbe1d8819	-0.15383948
87	0xbcec4fe0	-0.028846681
88	0xbddd8cf5	-0.10817901
89	0xbe188cb0	-0.14897418
90	0xbd1e7367	-0.038684275
91	0x3cc3c497	0.023897452
92	0xbe297bc3	-0.16551118
93	0x3dbbeb79	0.09175772
94	0xbe066231	-0.13123395
95	0xbda7f861	-0.082016714
96	0x3e070ca0	0.1318841
97	0x3b99d370	0.004694395
98	0xbc1b5df6	-0.009482851
99	0x3eb6ed14	0.3572775
100	0x3d45970e	0.04823976
101	0xbd98abd0	-0.07454646
102	0x3d13afda	0.036056377
103	0xbe30d0a1	-0.17267086
104	0x3ddfa396	0.109198734
105	0x3bc3637f	0.0059627886
106	0xbe80d076	-0.25159043
107	0x3ba237e0	0.0049505085
108	0x3e8aa105	0.27075973
109	0x3e364338	0.1779908
110	0xbe26fc11	-0.16307093
111	0xbde7ad25	-0.113123216
112	0x3ea3b299	0.31972197
113	0x3b9873c0	0.0046524704
114	0x3db1926e	0.08670507
115	0xbdfdc38a	-0.12390812
116	0x3ea857a1	0.32879356
117	0x3e3e909a	0.18609849
118	0xbdc25be1	-0.09490181
119	0x3d7a7a6b	0.061151903
120	0xbc91acb4	-0.017782547
121	0x3e0f43ed	0.13990755
122	0x3e9de0ec	0.30835664
123	0xbb4bb460	-0.0031082854
124	0x3e3813c0	0.17976284
125	0xbe8404b3	-0.25784835
126	0x3e6c4cc6	0.23076162
127	0x3df0a090	0.11749375
128	0x3ea9b19b	0.33143315
129	0xbe690cd8	-0.22758806
130	0x3d8abcf1	0.06774319
131	0x3d8b16b0	0.06791437
132	0x3ea78485	0.32718292
133	0xbc9cf538	-0.019159898
134	0xbd7fa0e0	-0.06240928
135	0xbdf4f481	-0.11960698
136	0x3d653832	0.055961795
137	0xbd89628c	-0.067082494
138	0xbd229686	-0.03969433
139	0xbda0987f	-0.07841586
140	0xbe89dd84	-0.26926816
141	0xbedc26c0	-0.42998314
142	0x3c188488	0.009308942
143	0x3d14d05f	0.03633153
144	0x3e1722a4	0.14759308
145	0xbe70d5b8	-0.23519027
146	0xbe06bc82	-0.13157848
147	0x3e27cde8	0.16387141
148	0xbdaaeae0	-0.0834558
149	0x3dc47c13	0.09593978
150	0x3e1e9dea	0.15489927
151	0xbe0c49a5	-0.13699968
152	0xbc42ad98	-0.011882208
153	0xbca45088	-0.020057932
154	0xbd0d7cae	-0.034542732
155	0x3e1967ec	0.1498105
156	0x3e04e589	0.12978186
157	0x3e2ec807	0.17068492
158	0xbd90621e	-0.07049964
159	0xbe0b84d0	-0.13624883
160	0xbd52a996	-0.05143126
161	0x3e24d0b7	0.16095243
162	0xbd955e04	-0.07293323
163	0x3eb01f96	0.34399098
164	0x3cc9535c	0.024575882
165	0x3c895ed4	0.01676885
166	0xbde8f430	-0.113747
167	0xbdcc365b	-0.09971305
168	0x3e1f6e4d	0.1556942
169	0x3c549ab8	0.012976341
170	0xbe22685a	-0.1586012
171	0xbd9d2a27	-0.076740555
172	0x3d895354	0.06705347
173	0x3de96c7b	0.11397644
174	0xba923240	-0.0011153892
175	0x3d399ade	0.04531371
176	0xbdaea36d	-0.08527265
177	0x3ddb2f55	0.10702387
178	0xbe2f0d32	-0.17094877
179	0xbebe92cb	-0.3722137
180	0xbd9e799c	-0.07738039
181	0xbdd76649	-0.10517556
182	0x3dfc7fe9	0.123290844
183	0x3df81b9b	0.1211464
184	0xbd59799e	-0.0530945
185	0xbd0be7da	-0.034156658
186	0x3e0e318c	0.13886088
187	0xbe27bae4	-0.16379887
188	0x3deb1ebb	0.11480471
189	0x3e02d5f9	0.12776937
190	0xbcf445a4	-0.029818363
191	0x3e385d74	0.180044
192	0x3d776836	0.060402118
193	0xbe88e82c	-0.26739633
194	0xbe461caa	-0.19346872
195	0xbdd831a3	-0.105563425
196	0x3d743390	0.059619486
197	0x3e41fe9e	0.18944785
198	0x3d430154	0.04760869
199	0xbe82b657	-0.2552974
200	0x3e2f40f2	0.17114618
201	0x3e17e5de	0.14833781
202	0x3e668258	0.2251066
203	0xbafac584	-0.001913235
204	0x3de86c1f	0.113487475
205	0xbe25e268	-0.16199648
206	0xbeccf6d9	-0.4003208
207	0xbe107bc4	-0.14109713
208	0x3d45ffac	0.04833953
209	0x3dd3655a	0.10322066
210	0x3dfb41ee	0.122684345
211	0x3de9ffae	0.1142572
212	0xbc87d3d8	-0.016580507
213	0x3e7cbec0	0.2468214
214	0x3e81f009	0.25378445
215	0xbe3d1ae0	-0.18467283
216	0x3e753808	0.23947155
217	0x3e3d61c8	0.18494332
218	0xbe3706fe	-0.17873761
219	0x3e2d3467	0.16914521
220	0x3eb61bd9	0.3556812
221	0x3e8a8d6a	0.27061015
222	0x3da9e4d3	0.08295598
223	0x3e02087a	0.12698546
224	0x3e026ed6	0.12737593
225	0x3df583a0	0.11987996
226	0xbe2dddad	-0.16979094
227	0x3e2baa03	0.16764073
228	0x3bcd8ba0	0.006272748
229	0xbe5387e8	-0.20657313
230	0x3e2b33e6	0.16719016
231	0x3ebb4c0d	0.3658146
232	0xbe790318	-0.24317586
233	0x3e9aac3c	0.3020953
234	0x3d1e0cee	0.03858655
235	0xbdcf31e7	-0.1011694
236	0x3e7cce46	0.24688062
237	0x3e6c7d1e	0.23094603
238	0xbddd6704	-0.10810664
239	0x3dbc31cd	0.09189186
240	0x3e3f7c9c	0.18699878
241	0x3e1374c8	0.14400017
242	0xbd1093ea	-0.03529731
243	0xbe80cff2	-0.2515865
244	0x3db8d0d3	0.09024205
245	0x3f299d64	0.66255784
246	0x3e484802	0.19558719
247	0xbe180fa4	-0.14849716
248	0xbd5f98de	-0.054589145
249	0x3eb6c3b1	0.35696176
250	0xbd8901de	-0.06689809
251	0x3d81a34c	0.063299745
252	0x3d75d174	0.060014203
253	0xbe7d2ecc	-0.24724883
254	0x3da1821b	0.07886144
255	0xbdb76048	-0.08953911

layers.1.bias f4 [32]
0	0xbde1b42e	-0.11020695
1	0xbd461b88	-0.0483661
2	0xbdbcd421	-0.09220148
3	0x3d79f7ba	0.061027266
4	0x3e1c51f9	0.15265645
5	0xbb23e42e	-0.0025007832
6	0xbbca9281	-0.0061820154
7	0xbe18150d	-0.1485178
8	0xbc208101	-0.009796382
9	0x3e10ca87	0.14139758
10	0xbe133dae	-0.14378998
11	0xbd67bdd1	-0.056577507
12	0x3dc4d43e	0.096107945
13	0xbd06036e	-0.032718115
14	0xbe138834	-0.14407426
15	0x3dcd35ae	0.10020004
16	0x3d46d8a9	0.048546467
17	0xbe313407	-0.17305003
18	0x3e175515	0.1477855
19	0x3cd3a1ba	0.025833953
20	0xbdbfba12	-0.09361662
21	0xbe156a38	-0.145913
22	0xbdfa5db4	-0.12224904
23	0x3d726959	0.0591825
24	0x3de3a218	0.11114901
25	0xbcb51b0c	-0.022107624
26	0xbdc17ce2	-0.09447648
27	0x3d46648a	0.048435725
28	0x3e289d68	0.16466296
29	0x3cd8ea3e	0.026478883
30	0x3d84df9d	0.06487963
31	0x3e26091b	0.16214411

layers.2.weight f4 [32, 32]
0	0xbca304ac	-0.019899689
1	0xbe28cf1c	-0.16485256
2	0xbe248268	-0.16065371
3	0x3e222d0a	0.15837494
4	0xbc317cb0	-0.0108329505
5	0x3d91158d	0.070841886
6	0xbd38eabe	-0.045145743
7	0xbcdeabdc	-0.027181558
8	0xbe2e73b3	-0.17036323
9	0x3e19642a	0.14979616
10	0x3ebb1778	0.36541343
11	0x3daff397	0.08591383
12	0x3e222464	0.15834194
13	0xbe7c00f4	-0.24609739
14	0x3df734e4	0.12070635
15	0xbdaee18c	-0.085391134
16	0xbdc716a3	-0.097211145
17	0x3d56f9ae	0.052484207
18	0xbe55af9e	-0.20867774
19	0xbd383d0a	-0.044980086
20	0x3eaee8cc	0.34161985
21	0xbdda43a5	-0.106574334
22	0x3cfe5cb6	0.031050067
23	0x3e041f9f	0.12902687
24	0x3e909ebf	0.28246114
25	0x3e221276	0.15827355
26	0xbd6ad353	-0.05733044
27	0x3e1ab271	0.15107132
28	0x3c7be860	0.015375227
29	0x3c1d5960	0.009603828
30	0xbc1cb63c	-0.009564932
31	0x3eac0ab4	0.33601916
32	0xbe495094	-0.19659644
33	0x3e9211a9	0.285291
34	0xbc28b158	-0.010296188
35	0x3dae08bc	0.0849776
36	0x3db3e9b8	0.08784813
37	0x3e8f89ff	0.2803497
38	0x3e20bc68	0.15696871
39	0xbcb23fc4	-0.021758921
40	0xbea6b548	-0.32560182
41	0xbdc31707	-0.095258765
42	0xbe793e78	-0.24340236
43	0xbd873486	-0.06601815
44	0x3ec51c48	0.3849814
45	0xbe11b7fe	-0.14230344
46	0xbd8d503b	-0.06900068
47	0x3cad183c	0.02112972
48	0xbcb056d8	-0.021525785
49	0x3dbc7f6b	0.092039905
50	0x3e20e384	0.1571179
51	0xbeb9677c	-0.36211765
52	0xbd3af4bb	-0.04564355
53	0xbe974ff8	-0.295532
54	0x3dc6c437	0.09705394
55	0x3e68cdc4	0.22734743
56	0x3ce54438	0.02798663
57	0x3d9cd2bf	0.07657384
58	0x3e72fa50	0.23728299
59	0xbdfdf772	-0.12400712
60	0x3c7db5f0	0.015485272
61	0x3d8ebcd7	0.06969612
62	0x3e7b1802	0.24520877
63	0xbe0edd20	-0.1395154
64	0xbd4aeff4	-0.049545243
65	0x3ca894d8	0.020578787
66	0xbde9c889	-0.11415202
67	0x3e15f5e2	0.14644578
68	0x3d8b5e30	0.06805074
69	0x3dc86160	0.09784198
70	0x3ea7ed29	0.32798126
71	0x3e29a5fa	0.16567221
72	0xbd80d877	-0.062912874
73	0x3e49630e	0.19666693
74	0x3e285454	0.16438419
75	0xbe7bc808	-0.24588025
76	0x3e336f57	0.17522942
77	0x3c95a74f	0.018268256
78	0xbe179b35	-0.148053
79	0x3e454085	0.19262893
80	0xbde5a17e	-0.11212443
81	0xbe597d26	-0.21239147
82	0xbc3b1740	-0.011419117
83	0xbf1fc331	-0.62407213
84	0x3e03a589	0.12856115
85	0xbd13812a	-0.036011852
86	0xbd09d24f	-0.03364783
87	0x3d88473c	0.06654212
88	0x3e015998	0.12631834
89	0x3e7ace12	0.24492672
90	0x3e82d4a1	0.25552848
91	0x3e8c2f9e	0.2738008
92	0x3b5db420	0.0033829287
93	0xbdbc291e	-0.0918753
94	0xbd779acc	-0.06045036
95	0x3dd46267	0.10370331
96	0x3d981c0f	0.07427227
97	0xbd53d646	-0.05171802
98	0x3d7c61a1	0.061616544
99	0x3db450ae	0.08804451
100	0xbc57f398	-0.013180636
101	0xbd40b8ac	-0.047051117
102	0xbd9c932a	-0.07645257
103	0xbdf70053	-0.12060609
104	0x3e3d85a7	0.18508016
105	0xbd8910bb	-0.06692644
106	0x3df26a67	0.11836701
107	0xbcc82cf5	-0.0244355
108	0x3bd11660	0.006380841
109	0xbc1dc288	-0.009628899
110	0xbccb22aa	-0.024796803
111	0xbe828a69	-0.25496224
112	0x3e1d6836	0.15371785
113	0x3ebf4161	0.37354568
114	0x3e0ae545	0.13564022
115	0x3cd480b4	0.025940277
116	0xbe0406c2	-0.12893203
117	0x3d44e539	0.048070166
118	0x3ec108a9	0.3770192
119	0xbeaaeb30	-0.3338256
120	0x3e81c059	0.25342062
121	0xbd124b4e	-0.035716347
122	0xbc6cebd0	-0.014460519
123	0x3e225a4e	0.15854761
124	0x3d00a2de	0.031405322
125	0xbd19222d	-0.03738611
126	0xbdab5790	-0.083663106
127	0xbda472c1	-0.080297
128	0x3e262ae4	0.16227299
129	0x3e854d72	0.2603565
130	0xbc33bec0	-0.010970771
131	0x3dc21dd5	0.09478346
132	0xbd97918e	-0.07400809
133	0x3e00eb6a	0.12589803
134	0xba05bcb2	-0.0005101665
135	0x3e0c73ea	0.13716093
136	0xbe81cedd	-0.25353137
137	0xbdd16b41	-0.10225535
138	0xbd81cd50	-0.063379884
139	0xbcc40024	-0.023925848
140	0xbe402255	-0.18763097
141	0x3ebcd099	0.36877897
142	0x3de5fe1d	0.11230109
143	0x3d86afd7	0.065765075
144	0xbdb706d2	-0.08936848
145	0xbdc2bdc7	-0.095088534
146	0x3e2ea573	0.17055301
147	0x3dee2f63	0.11630132
148	0xbe9df231	-0.3084884
149	0x3d588166	0.05285778
150	0x3d31495c	0.04328285
151	0x3e1fbb63	0.15598826
152	0x3dae9f53	0.085264824
153	0xbbfec91f	-0.0077754403
154	0xbd8b9807	-0.06816106
155	0xbd228468	-0.039677054
156	0x3e19842e	0.14991829
157	0x3e2a5ef0	0.16637778
158	0xbee1fc9d	-0.4413804
159	0xbe328815	-0.17434724
160	0xbe8c2dc0	-0.27378654
161	0xbdf73a85	-0.120717086
162	0xbea00dd3	-0.31260547
163	0x3d93c20d	0.072147466
164	0x3deb3034	0.114838034
165	0x3e01ef54	0.12688953
166	0x3d1a302e	0.037643604
167	0x3d11b76b	0.03557531
168	0xbd08335a	-0.033252098
169	0xbe062460	-0.13099813
170	0x3d474d99	0.048657987
171	0x3d996fd8	0.074920356
172	0x3e8823c8	0.265898
173	0xbe39fb5c	-0.18162292
174	0x3e12977f	0.14315604
175	0xbe0f04a4	-0.13966614
176	0x3ed7d576	0.42155045
177	0x3e31a559	0.17348231
178	0xbd6e7180	-0.05821371
179	0x3d9e152b	0.07718881
180	0x3cc3a7f0	0.02388379
181	0x3e4f8d20	0.20268679
182	0x3d09b946	0.033623956
183	0xbe1d96c9	-0.15389551
184	0xbe540093	-0.20703344
185	0xbdd270cb	-0.1027542
186	0x3d6f9172	0.058488317
187	0xbd2dbdd0	-0.042417347
188	0xbdc9fdb6	-0.09862845
189	0x3da6685f	0.08125376
190	0x3e3d6fe3	0.18499713
191	0x3ce44cb0	0.027868599
192	0x3e9315ad	0.28727475
193	0x3cc97f38	0.024596795
194	0x3e1ab7ac	0.15109128
195	0xbc88bc48	-0.016691342
196	0xbdef671d	-0.11689589
197	0xbeee3019	-0.4652107
198	0x3e7de0e4	0.2479282
199	0x3ddd628b	0.10809811
200	0x3e2898a6	0.16464481
201	0x3daebfd2	0.085326806
202	0x3e2ebe78	0.17064846
203	0x3c375dd0	0.0111918
204	0x3e1a0e33	0.15044479
205	0xbe8bac50	-0.27279902
206	0x3d022c56	0.031780563
207	0xbde7b5b7	-0.11313956
208	0x3c2806e8	0.010255553
209	0x3cca366c	0.024684153
210	0x3d517c83	0.051144134
211	0x3df7a63c	0.120922536
212	0xbd3f17c0	-0.04665351
213	0x3dd812fa	0.105504945
214	0x3e2a8d00	0.1665535
215	0x3e593762	0.21212533
216	0xbd7923f5	-0.060825307
217	0x3e20170b	0.1563379
218	0x3e89b6fb	0.26897416
219	0xbe435947	-0.19077025
220	0x3e0a24e0	0.13490629
221	0xbc1428a0	-0.009042889
222	0xbdaefc13	-0.08544173
223	0x3dc2b86e	0.095078334
224	0xbcba953d	-0.02277624
225	0xbe1db706	-0.15401849
226	0xbe4f3c72	-0.20237902
227	0x3e67da1a	0.22641793
228	0x3e140152	0.14453629
229	0x3dddf663	0.1083801
230	0x3e1cd7e0	0.15316725
231	0x3d8ff171	0.07028473
232	0xbe66f7b0	-0.22555423
233	0xbeb96008	-0.3620608
234	0xbe323e76	-0.1740664
235	0x3c70e828	0.014703788
236	0x3e31cfc0	0.17364407
237	0x3d4e325c	0.050340995
238	0x3eb0a584	0.34501278
239	0x3ded503f	0.11587571
240	0x3bdda780	0.0067643523
241	0x3d985cf8	0.074396074
242	0xbe83420a	-0.2563632
243	0xbd476b13	-0.0486861
244	0xbd9decb6	-0.07711165
245	0x3c9b1620	0.018931448
246	0xbe529d3e	-0.20567796
247	0x3e98b37c	0.29824436
248	0x3e178cc2	0.14799789
249	0x3cae6db0	0.021292537
250	0x3e877ea2	0.264638
251	0x3d1d0366	0.03833332
252	0xbe177863	-0.14792018
253	0xbe7065de	-0.23476359
254	0x3e21cf15	0.15801652
255	0x3d883721	0.0665114

layers.2.bias f4 [32]
0	0xbe28d8e9	-0.16488995
1	0x3e28b680	0.16475868
2	0xbde15b79	-0.11003775
3	0x3e22096d	0.15823908
4	0xbe1c0207	-0.15235148
5	0x3d6be625	0.05759253
6	0xbda12e9e	-0.0787022
7	0x3d45b977	0.048272576
8	0xbcbe1ab6	-0.023206096
9	0x3d9c179f	0.07621693
10	0xbd56bc7e	-0.052425854
11	0x3d9f4ab4	0.0777792
12	0x3aeeae83	0.0018209968
13	0xbb96029d	-0.0045779482
14	0x3e11394b	0.14182012
15	0xbde09bf8	-0.10967249
16	0xbdbc60c2	-0.091981426
17	0xbda959a5	-0.082690515
18	0x3e05a053	0.1304944
19	0xbdb44ea6	-0.088040635
20	0x3dfb3132	0.12265243
21	0x3d641cb9	0.055691455
22	0xbc8f5ebb	-0.017501226
23	0x3d8502ea	0.064946964
24	0x3e05506a	0.13018957
25	0xbcb480fc	-0.02203416
26	0x3e01c29f	0.12671898
27	0xbd5cc21e	-0.053896062
28	0xbd33480c	-0.04376988
29	0x3dfde106	0.123964354
30	0x3dc65d94	0.09685817
31	0xbdcd8050	-0.10034239

layers.3.weight f4 [2, 32]
0	0x3e9da92c	0.3079313
1	0x3f3d37a7	0.73913044
2	0x3f547e10	0.83004856
3	0xbf25bdf4	-0.6474297
4	0xbe144d50	-0.14482617
5	0x3f5c1726	0.8597282
6	0xbf00ebac	-0.50359607
7	0x3f471944	0.7777293
8	0xbe2f1364	-0.1709724
9	0x3f128303	0.5723116
10	0xbf3efc68	-0.7460389
11	0x3ece108d	0.40247002
12	0x3fadfc21	1.3592569
13	0xbf586938	-0.8453555
14	0xbe765e4a	-0.24059406
15	0xbfd0bf6d	-1.6308419
16	0xbdf6a71b	-0.120435916
17	0x3e3130be	0.1730375
18	0x3f792e84	0.973366
19	0xbf5d7fb9	-0.86523014
20	0xbfd64320	-1.6739235
21	0xbebff528	-0.37491727
22	0x3f6cf32f	0.9255857
23	0xbed0b567	-0.407634
24	0xbfa890f6	-1.3169239
25	0x3fa257d5	1.2683054
26	0x3fb010ec	1.3755164
27	0x3f219cb6	0.63129747
28	0x3eebbc03	0.4604188
29	0x3f7296c8	0.94761324
30	0x3ecba56c	0.39774644
31	0x3f0eae82	0.5573503
32	0xbf8a2ff7	-1.0795888
33	0x3e0afcb0	0.13572955
34	0xbdca435f	-0.09876131
35	0x3f41a6fa	0.7564541
36	0x3e2fad42	0.17155936
37	0xbf18e11d	-0.59718496
38	0x3f456254	0.7710316
39	0xbf5d7ce7	-0.8651871
40	0xc013f79a	-2.3119874
41	0xbed0e4df	-0.40799615
42	0xbd7b1d06	-0.061306976
43	0xbf19c6a6	-0.6006874
44	0xbf0df2a4	-0.55448365
45	0x3f233db1	0.6376601
46	0xbece6cdf	-0.40317437
47	0x3fec1645	1.8444296
48	0xbee8dd20	-0.45481205
49	0xbf2452de	-0.64188945
50	0xbf197d9e	-0.599573
51	0x3c057690	0.008145943
52	0x3e8ccf1d	0.27501765
53	0xbf2476d3	-0.6424381
54	0x3e6419fa	0.22275534
55	0x3f80fb64	1.0076718
56	0x3f4a89bf	0.79116434
57	0xbfb46030	-1.4091854
58	0xbfacb046	-1.3491294
59	0xbedff22b	-0.43739447
60	0xbf12e113	-0.57374686
61	0xbfaf1d20	-1.3680763
62	0x3f215212	0.63015854
63	0xbd2add2c	-0.041714832

layers.3.bias f4 [2]
0	0xbe090d58	-0.13383996
1	0x3dab1a5f	0.08354639
