A2/part2/sa_model_params.pt (torch, 14880 bytes, 8 tensors)

layers.0.weight f4 [20, 100]
00000000: 87c5 bdbc d3e9 bfbd c0e2 64bd d0c1 233d
00000010: c386 07bd d3be 8e3d b3f0 573c 4bc7 9a3d
00000020: 0098 cf39 df73 a5bd 67a2 59bb 8db5 c73c
00000030: 8048 69bd d535 333e 00c6 66bd be85 44be
00000040: b84e b9bd 9a82 ae3b 925d 96bd 5776 0b3d
00000050: 775b 55bd 122d b8bd d78e 53bd 228e b63d
00000060: c8c9 b3bd 60f2 043d 7890 87bc 7363 03bd
00000070: 9af6 543d 32c2 b4bd 6a97 6f3d f076 673d
00000080: d815 93bd 008c 2abd 1fd1 c1bd 2ac7 6fbd
00000090: 2218 8fbd 177d 9c3d 654b b83d 6b87 ac3d
000000a0: b750 663d 875f 8dbd 603d b23c 5324 2bbd
000000b0: 6fe5 bd3d eb01 cabd 67df 053c 9a98 a4bd
000000c0: 3379 6dbd 5a0f 043c 9a54 23bc 38f3 f83c
000000d0: 2bd5 8cbd fd87 8dbd 05de 913d 3d23 24bd
000000e0: 2720 b9bc 17e2 4fbd 2219 afbd b7aa 063d
000000f0: 5b57 adbd ed33 f53c f01f 283d c0ea 783c
00000100: 73bd 3e3c 6718 d73c 1ba0 9b3d e073 643d
00000110: cd42 6f3c 4d09 ba3d 1a0e 8c3d 2d17 683d
00000120: 1244 cc3d 0a01 503d 07aa d5bc 0a99 38bd
00000130: 88bc b43d c0c3 1fbd 3778 83bd 808a c9bc
00000140: f043 303d d397 b1bc 6081 1ebe cdcf 4dbd
00000150: 4f91 bebd fd87 35bd cdfa 143d f334 c1bc
00000160: 020b cebd 2349 c43d b033 a0bd 6a0c 79bd
00000170: 5bd5 9c3d 3d89 483d 3303 fc3b 972e 3dbd
00000180: 870f 733d 5a66 73bd 9a27 0f3c 432d 00bd
00000190: 9aef 76bb 3d3b 77bd 6735 07bd 20d0 b13d
000001a0: 9a33 cd3b a3a4 29bd d367 74bd bb96 b63d
000001b0: c0da 3fbd 27df 7bbc 60df 4bbd 1478 94bc
000001c0: 275d e73c ae5b 86be 738c 013c 2d8d a83d
000001d0: cf12 b83d 40e2 373e e342 73bd 585a ad3d
000001e0: 0040 9d3c f064 823d 0d7a ddbc 4754 8b3d
000001f0: cd20 61bc 008c 9f3b 00d1 9fbb ba84 973c
00000200: 6a77 d13d 07cf 4fbd 43b4 143d b33c d4bb
00000210: 1a35 9d3d 934b 553d 0def 2f3d 6d8e c2bd
00000220: 0da1 c0bc ba84 a53d b6bc 2ebe 8703 3f3d
00000230: a386 7f3d 1b03 98bd d533 8b3d 4f3b 933d
00000240: 3b09 aebd d3e6 d83c 77a2 66bd a7a7 afbd
00000250: 4a07 c13d 0e34 083e 1ae2 d13c 43d2 3e3d
00000260: 8c3c 23be 1391 89bc 6044 35bd d2bc 91bd
00000270: 63ec aabd 712c 39be 1768 063d a02f 243d
00000280: be47 9a3d 2306 383d 3e28 9dbd 131b 553d
00000290: 40de 6c3d 6726 f3b9 a021 b8bd b04a 18bd
000002a0: 239e bc3d fdba 583d 233e d83d cda0 2dba
000002b0: e779 ba3d 9a75 543c 80eb b43c c340 9bbd
000002c0: bffb 89bd efdd c8bd 80bc 7d3c 4725 68bd
000002d0: 30d6 51bd e2f0 aa3d 4758 0e3d 9341 d6bc
000002e0: 00e9 4abc 58e4 a3bd 837a 0d3d f7d6 2dbd
000002f0: 002f b93c 33ea 4ebb cda3 a13d 58d9 94bd
00000300: 273d 62bd cdb4 493d d495 403e d330 fdbc
00000310: a04f 8abd 3719 0dbd 57b3 cbbd 8247 873d
00000320: 077d c0bc 13fd 613d 7382 333d cddd debc
00000330: 5a03 5cbc f332 6e3d 9334 37bd 4cda 4a3e
00000340: 2b9f 87bd 8d10 383d 7784 2b3d cd10 01bd
00000350: 0034 6f3b 2d25 c03c 47a4 9d3d b31a 8bbc
00000360: e755 dfbb cd58 e43c 4d46 8abc 1ae5 903c
00000370: 5053 4dbd ede7 d63c 27e2 093d 7ad7 dfbc
00000380: 8063 4c3d 8d30 c23d 8054 dbbc 8b4b 9abd
00000390: 67ae 5cbd 605a edbc da8d 463d 77bb 7b3d
000003a0: 2d25 0bbd 3a7d 3bbd 77e8 7f3d 75cb 23be
000003b0: 676d 6ebb aa7c 633d 1abf 2bbc b24d 853d
000003c0: b837 ae3d 1718 523d ad3d c63d cdbc c53d
000003d0: d02f 9dbd cd79 4fbb 0d7c 71bc 57b7 653d
000003e0: d093 b8bd b544 203e ba33 a9bd a768 48bc
000003f0: 00f0 ed3a b82b 913d 93b6 bdbc 0f5a a5bd
-0.023165477 -0.0937077 -0.05588031 0.039979756 -0.033087503 0.069699906 0.013179946 0.07557543
0.00039595366 -0.08078741 -0.0033208372 0.024378562 -0.056953907 0.17501004 -0.05634117 -0.19191644
-0.090482175 0.0053256275 -0.07342066 0.034048405 -0.05208918 -0.089929715 -0.051649895 0.089138284
-0.08778721 0.03245771 -0.01654838 -0.032077264 0.05199299 -0.08826102 0.05849401 0.056509912
-0.07181901 -0.04163742 -0.09463715 -0.058539547 -0.06987025 0.076410465 0.08998755 0.084242664
0.05622932 -0.06902986 0.021757782 -0.04178269 0.092722766 -0.09863647 0.008170939 -0.08036919
-0.057976913 0.008060301 -0.009968901 0.030389413 -0.06876596 -0.06910703 0.07122425 -0.04007267
-0.02259834 -0.050752725 -0.085497156 0.03287765 -0.08463927 0.029931987 0.041046083 0.0151926875
0.011641848 0.026256753 0.07598897 0.05577457 0.014603329 0.09083805 0.06838627 0.056662727
0.09973921 0.05078224 -0.026082052 -0.045067824 0.08825022 -0.03900504 -0.064194135 -0.024602175
0.04303354 -0.02167884 -0.1547904 -0.050247002 -0.09305059 -0.04431914 0.036371995 -0.023584818
-0.10060693 0.09584262 -0.078223586 -0.060802855 0.07657882 0.048959006 0.007690811 -0.04618701
0.05934098 -0.059423782 0.008737469 -0.031293165 -0.0037679435 -0.06035923 -0.033009913 0.08682275
0.006262255 -0.041416775 -0.059669327 0.08915468 -0.046839476 -0.015373028 -0.049773574 -0.018123664
0.02824266 -0.2624182 0.007907021 0.08230052 0.089879625 0.17957401 -0.05938996 0.08464497
0.019195557 0.063669086 -0.027035737 0.06803184 -0.0137407305 0.004868984 -0.0048772097 0.018495906
0.102278545 -0.050734546 0.036304723 -0.0064769625 0.07676144 0.052074026 0.042952586 -0.09499822
-0.023514295 0.08081956 -0.17064175 0.046634223 0.06238426 -0.07422467 0.067969956 0.071890466
-0.08497854 0.026477253 -0.056307282 -0.08576899 0.094252184 0.13301107 0.025620509 0.04658724
-0.15941066 -0.01679281 -0.04425466 -0.07116093 -0.083458684 -0.1808336 0.03281411 0.04008448
0.07533215 0.044927727 -0.07673691 0.052027773 0.05782914 -0.00046377184 -0.089907885 -0.037180603
0.0920985 0.0529127 0.10558727 -0.00066233875 0.09105282 0.0129674915 0.022084951 -0.07580712
-0.0673747 -0.098079555 0.015486836 -0.056676175 -0.051229656 0.08346726 0.034752157 -0.026154315
-0.012384653 -0.080025375 0.034540664 -0.042441335 0.02260542 -0.00315727 0.07892571 -0.072680175
-0.0552341 0.04924469 0.18807155 -0.03090707 -0.067534685 -0.034447875 -0.09946316 0.06605436
-0.023497118 0.05517299 0.043825578 -0.027205372 -0.013428533 0.058154058 -0.044727873 0.19809836
-0.06622156 0.04493766 0.041874375 -0.031510163 0.00364995 0.023455227 0.07697349 -0.016980505
-0.0068156603 0.027874375 -0.016879225 0.01768737 -0.05012828 0.026233638 0.03366294 -0.027324427
0.049899578 0.094819166 -0.026773691 -0.0753394 -0.05387726 -0.028973758 0.048475124 0.061458077
-0.033971 -0.045773722 0.062477555 -0.15995581 -0.0036381127 0.05553881 -0.010482574 0.0650896
0.08506721 0.051292505 0.096797325 0.096551515 -0.07675135 -0.0031658292 -0.014739049 0.05608305
-0.09012568 0.1565121 -0.08261819 -0.012231982 0.0018153191 0.07088417 -0.023158347 -0.08073818

layers.0.bias f4 [20]
00000000: 235f 6fbd 133f f8bc 5f4a 98bd 57eb 913d
00000010: 27fb 3d3d fd1a 41bd 0ab0 84bd f08c ae3d
00000020: 10cf 663d aa8a 18bd ebea ae3d 50ba 51bd
00000030: d339 ca3d 3372 fdbb c010 0a3d 805c 583d
00000040: 40db 153d 9394 8e3c baf9 1abd 7bbd c03d
-0.05844034 -0.030303514 -0.0743606 0.07124966 0.046382096 -0.04714488 -0.06478889 0.085229754
0.056349814 -0.037241615 0.08540901 -0.051203072 0.0987431 -0.007734561 0.03370738 0.05282259
0.036586046 0.01740483 -0.037835814 0.094111405

layers.1.weight f4 [20, 20]
00000000: 5815 9d3d c745 983d 38f9 b5bd 4cc3 d3bc
00000010: de55 22be bdfe f63d c6f8 52be 90a8 97bd
00000020: 62a0 1f3d 45c2 6cbd cedd 53be cd98 cbbd
00000030: ea89 703e 4823 463e f830 563e 7b4d 4b3e
00000040: 72ed a43d 3ae0 003e ce64 30bd bcbf 04bd
00000050: b2f3 2cbe 8208 fabc 16a7 a0be e00c d23d
00000060: ce3d 17be 82dd 1f3e 7a61 f7bd 322d 86be
00000070: 4d53 4b3e 841d 6abe edd6 3ebe 24b0 963d
00000080: e045 48bc 8eb9 843c 6b23 403e cf1b aa3d
00000090: d06c a13e 612a 4dbe 1a41 b4bd 32ea 133e
000000a0: 4608 8cbe cdcf af3d 0c54 9fbd 0f7d 783d
000000b0: 1e03 6ebe 2ac4 61bd 250a c23e e6ed 1d3c
000000c0: 836c ddbd 5883 2e3e 5ee3 63bd e54e fe3d
000000d0: cfda bcbd 374f 9cbd e4e7 ad3b 2e1b 1ebc
000000e0: 5bc2 0dbe a5ac 333e 8276 913d 680d 85bc
000000f0: 02e1 3a3e f06c 993d 018a eabd b6d1 0bbe
00000100: 4111 8ebd 3c6d 463e d835 4d3d 418d 3dbe
00000110: 0f09 393e 9456 bcbe 9fa7 d83d 5dc4 bd3c
00000120: 2f0d 47be a262 3c3d 89c7 9abd b879 853c
00000130: c083 c8bb 2d53 a2bd 6353 5fbe 175c a4be
00000140: f896 9bbe 2c5e 36be 8f68 03be f29a e8bd
00000150: 50f0 843d 4cff 86bd 78da 0e3e 9db2 53be
00000160: 6000 e13b d3b6 643d 4cc9 50be 6ace 4d3e
00000170: f818 093e 3486 913c cba9 0d3e afff ff3d
00000180: 881e 2dbe 82b6 823e 7381 dabd 238a df3d
00000190: b51c 1d3e c73a a9bd e24f d6bc 22c9 3b3e
000001a0: 559a 36bd ff18 12be b4c2 e33d 13ee 7d3c
000001b0: a27d 953d ee22 3c3d e9bb eebd 6502 1f3e
000001c0: 3a58 6cbd 2c34 853c 4478 61be 02d1 413e
000001d0: 39be d03e 5837 9dbe 48aa 7d3e ab03 d73d
000001e0: 95fe d13d 509a b33e 8617 a2bd ce1d 7ebe
000001f0: f4be 7f3c d163 c23d a0f0 db3c 1ad0 0a3e
00000200: 7d4d 3dbd f2d7 6b3d 0693 01be e27e bb3d
00000210: d0d2 5dbc ba95 16be 0e33 13bd cad4 85be
00000220: 5ecd 99be 3bf0 c7be ba8d 123d 01e9 943d
00000230: a0ea 8dbc f235 993d 5d71 d33d aeda c9bd
00000240: ea9d 2ebe ab40 353e fdd4 503e b914 07be
00000250: 349a 2d3e 83f7 27be 6b6e c1bd f5d9 843e
00000260: e4ae 833d 963c a1bc 16c1 8b3a b6e6 6ebe
00000270: 00f9 a03d 527f 2abe 95c9 2dbe fcee 883e
00000280: 1e95 473e 96af 90bd b9f0 9bbe 8c96 9cbe
00000290: ad9e 52be 44a3 a1be 78c5 393e 9090 033e
000002a0: 8f59 bd3d e87d 853e 8190 27be ec04 febd
000002b0: cb21 a6bd e4ec 6abd 1455 323e d643 0d3e
000002c0: 50bf 1abe 25d8 923e d0b4 a4bb 0143 643e
000002d0: a914 2ebe e97c 743d 25e9 e83c d7ee a8bd
000002e0: 2a0f 403e ef39 433e 8c7c 443e 868b 64be
000002f0: 256d 883c bcb9 97be 757c 2fbe c4fe 16be
00000300: cf70 45bd f804 d23c bebb 5cbe 0f20 553e
00000310: ba77 203e 65ec 8c3d 2f4f 23be 1222 88bc
00000320: e7a7 923d 5ed1 443e d52a f0bd 9ae3 25bd
00000330: 78ad 55be e120 693c ecae 2b3d f59a 583e
00000340: 7de3 2abe a918 4a3d fdaf 32be 9af6 8dbd
00000350: bb3b f0bd 3d4c 5a3e db74 f03d c700 fa3d
00000360: 043c 683d 614c 533e 809f e03b 73a6 a53e
00000370: d564 37be 1e2d 7f3d 5a9c 5e3e e007 67be
00000380: 2311 c8bd f013 30be dc21 7b3c ee6b 703e
00000390: 5441 6a3d 6243 babe 0952 b6bd f75f 5f3e
000003a0: e61e fb3d a0af 5cbe a1fa 96be 76a8 60be
000003b0: cb1f 36be 67e4 e93d 7b57 acbd 0582 473e
000003c0: 56ca 65bd c072 edbd 7cc5 1cbe 80e5 7d3e
000003d0: 3cec e0bc fa00 193d 6c03 42be 92b8 2bbe
000003e0: d959 01bd cc34 fbbd a4ee 363e 0f4c d9bc
000003f0: f998 183e 8ec2 8bbd 3be4 3d3c c7f7 033e
0.076700866 0.07435184 -0.08885425 -0.02584996 -0.15853068 0.12060306 -0.20602712 -0.074051976
0.038971312 -0.057802457 -0.2069008 -0.09941254 0.2349011 0.19349396 0.20917118 0.19853775
0.080531016 0.12585536 -0.043064885 -0.032409415 -0.16889837 -0.030521635 -0.31377476 0.10256362
-0.1476967 0.15611842 -0.12079139 -0.26206356 0.19855995 -0.22862822 -0.18636675 0.07357815
-0.012223691 0.01620176 0.18763511 0.08306085 0.3152833 -0.20035698 -0.0880148 0.14444807
-0.27350062 0.08584557 -0.077797025 0.06066614 -0.23243377 -0.055118717 0.37898365 0.009639239
-0.108117126 0.17042291 -0.055636756 0.12417392 -0.09221422 -0.076322965 0.0053071845 -0.009650035
-0.13843672 0.17546327 0.07102682 -0.016241744 0.18249896 0.07491481 -0.114521034 -0.13654217
-0.06936885 0.19377607 0.050100178 -0.18510915 0.18069862 -0.36784804 0.10578846 0.023164922
-0.19438623 0.0459925 -0.075575896 0.016293392 -0.0061192214 -0.07926021 -0.21809153 -0.3210151
-0.30388618 -0.17809361 -0.12832855 -0.113576785 0.064911485 -0.06591663 0.13950527 -0.20673604
0.0068665 0.055838417 -0.20389289 0.20098272 0.13388431 0.017764188 0.13834302 0.1249994
-0.16906178 0.25529867 -0.10669222 0.10915019 0.15342982 -0.08263164 -0.026161138 0.18338445
-0.044580776 -0.14267348 0.11121121 0.015498656 0.07299353 0.04593175 -0.11656935 0.15528257
-0.057701327 0.016260229 -0.22018534 0.18927386 0.40770128 -0.30706286 0.24771988 0.104987465
0.10253636 0.3507867 -0.07914643 -0.24816057 0.015609492 0.09491695 0.026848137 0.13555947
-0.046216477 0.05757899 -0.12653741 0.0915506 -0.013539031 -0.14705554 -0.03593736 -0.26138908
-0.30039495 -0.3905047 0.035779692 0.072710045 -0.017323792 0.074809924 0.10324357 -0.09856163
-0.17052427 0.1770045 0.20393749 -0.13191499 0.16953355 -0.16403012 -0.09444889 0.25947538
0.06429842 -0.01968221 0.0010662402 -0.23330197 0.07859993 -0.16650131 -0.16971429 0.2674483
0.19490477 -0.0706474 -0.30457094 -0.30583608 -0.20568343 -0.31569874 0.18141735 0.12848115
0.092455976 0.2607262 -0.16363718 -0.124032825 -0.08111914 -0.057354823 0.17415267 0.13795409
-0.15112042 0.2868053 -0.0050264373 0.22291185 -0.17000069 0.059689436 0.028431484 -0.0824868
0.18755785 0.19065069 0.19188136 -0.22318849 0.016653607 -0.29633892 -0.1713732 -0.14745623
-0.048203286 0.025637135 -0.21555993 0.2081301 0.15670672 0.06881026 -0.15948175 -0.016617808
0.07160931 0.19220492 -0.117269196 -0.04050026 -0.20866954 0.01422903 0.041914865 0.21152861
-0.16688342 0.049339924 -0.17449947 -0.06931801 -0.11730143 0.21318145 0.117410384 0.122071795
0.05669786 0.20634605 0.0068549514 0.32353553 -0.17909558 0.062298886 0.21739331 -0.22561598
-0.097688936 -0.17195106 0.015327897 0.23478672 0.057191208 -0.36379534 -0.08902366 0.21813951
0.12261753 -0.2155137 -0.2948809 -0.21939263 -0.17785566 0.114205174 -0.08415123 0.19483192
-0.056101166 -0.115941525 -0.1530971 0.24794579 -0.027456395 0.037354447 -0.18946618 -0.16769627
-0.031579826 -0.122659296 0.17864472 -0.026525525 0.14902104 -0.06824218 0.011590059 0.12887488

layers.1.bias f4 [20]
00000000: eafb 403e ae93 283e bc35 613e 73c6 263d
00000010: e988 523e 3b0b cbbd 2b4c 2cbe 6493 143e
00000020: 0a9e 4d3e 990f 913d fb29 56be 33a5 e33d
00000030: 7f7c 5bbe 6221 2dbd 5fe1 143e 2571 ddbd
00000040: ed9a 163e da66 f8bd 5074 3cbd 447c e23d
0.18846098 0.16462585 0.21993154 0.0407166 0.2056004 -0.099142514 -0.16825931 0.1450935
0.20079818 0.07083053 -0.20914452 0.111154936 -0.2143421 -0.042268164 0.14539097 -0.10812596
0.14707537 -0.121289924 -0.04600936 0.11058858

layers.2.weight f4 [20, 20]
00000000: 85d7 013e ef36 963e c287 143d c46c f53d
00000010: fb9d 26be 400d 0b3c d4a0 b6bd 8733 b0bb
00000020: ccd6 903e 31a4 a93d b12c c43d 6119 dd3e
00000030: 7e3c 253e be9a 2b3e 9667 a1bd 756d 3d3e
00000040: a80e 4f3e e24b 52be 3c53 053e 6458 813c
00000050: 73c7 eebd 00b3 60be 317b 85bd 8a80 14be
00000060: 9849 1a3e ee46 173e 925c 6e3d 1471 dabc
00000070: d2c8 da3d 8c0c cf3c a57d a0bd 2886 b23c
00000080: 30b1 d9bb 087b 1b3e b5e4 af3c 7ac6 b53c
00000090: d730 cf3d 54a4 9bbc 12aa 13be 7a34 bbbe
000000a0: 1004 54be 5040 693d bb19 99bd 9e37 54bc
000000b0: 8c01 50be 054a c9bd 17bb 373e 1f69 bebd
000000c0: 4b7b 2d3e b8e7 d2bd 6aa3 e4bd 517a cf3d
000000d0: e144 5fbd 5b5b a8bd 20a1 4b3c 9b58 f23d
000000e0: d6d7 113e 3802 89bc 1f5d 033b ca17 1c3d
000000f0: b539 30bd f5e8 223e d560 e1bd 9784 613c
00000100: a768 dabd 1b0c 41be 2509 5d3e 5693 60bd
00000110: f925 48be c713 d83d d13f c0bd 028d 7fbe
00000120: 3d18 e73d f827 89bc d04f f4bd cfa1 bbbd
00000130: ac64 eb3c f4e2 02be bafd 07be 0ada a1be
00000140: c578 123e 4ab5 25be 6b8d 92bb 0848 21be
00000150: e6e0 693d 271a 203e 0311 04be 96e5 593e
00000160: c101 dc3d b0fa c4bb cafe 48bd 09f8 803d
00000170: 7a9b 813d 623e 9e3d eaba 553e 2e7d 183d
00000180: 030d c7bd ddec 9e3d ab81 5f3e 17ab 873d
00000190: 613c 243e 4cfa 04be 7378 0e3d e96f 4dbe
000001a0: f3e0 653c 74e8 983d 3066 2fbe 2414 40bc
000001b0: 3416 b83d ef5d 3ebe 4d90 f53d 0470 343e
000001c0: 112c 313d 7609 3bbd 5d6c 39be 096b ec3c
000001d0: a98c 61bd e30e d7bd 30d6 553e 9dd0 303c
000001e0: f091 e83c 7eab 92bc d5d4 4fbd 5e5b 263c
000001f0: cb2b 283e 3fd1 0d3c 9477 233e f2b5 343e
00000200: b2fa 7ebe cf4b 423e fef8 003e af23 13be
00000210: f07a 13be 374d c73d e5c3 73bd d87a a23d
00000220: b27e 083e 9b6f 4d3e 4043 343e 4243 96bd
00000230: 38cf bc3c 7311 1a3e ef9d 503e 5ef9 44be
00000240: 6999 17be bc31 453e ed29 403e 8082 51be
00000250: 5650 203e 945c 8d3d deda 17be ba58 673d
00000260: 00b6 23bb 5578 48be 43b5 83bd 8a12 f9bd
00000270: 7afd 193d 7fa4 a8bd b69d 98bd 33e8 b33d
00000280: f3bd 2ebe eb83 833d c470 723e 0d05 363e
00000290: f0ac 3b3c 9898 923d a3f9 92be 2b92 5a3e
000002a0: eb1b 58be f8b0 c4bc 04c5 d8bd 0e75 783d
000002b0: 1a50 da3d 0ab2 02be c353 3fbe 64e4 59bc
000002c0: 04f8 443e bfd9 d43e dc88 be3c 0efb 6f3d
000002d0: 4f13 3dbe b442 b93c 9b05 2a3e c587 5c3d
000002e0: 623b 3c3e 1167 8dbe e168 d7bd 80f0 723e
000002f0: dfae 1f3e 5ac7 f8bc d6d5 f4bd cb00 bc3c
00000300: 40f4 233e dd51 8ebd 70db 62be 0044 bc3b
00000310: 7fed 42be 304c 703e 5664 a4be 2dda c4bd
00000320: 08bf 403d 06ca 6b3d 70e2 8bbb db46 c3bd
00000330: ece5 093d 07c7 243e cbf4 0abd 980f fd3d
00000340: 4d42 d03d 4098 043b de29 0d3e 1772 ec3d
00000350: e5c8 97be 353c 523e e0ef 043e 6aaa 263b
00000360: c665 05be db63 953d 7aec b73d 4c0d 27be
00000370: 3320 bf3d ddb9 2f3e eeaa 793d 555b 1e3e
00000380: eea7 3abe 6db2 93bd 4459 8b3d d26d 29bd
00000390: d9d7 f83d da39 1fbe 02db 33be 4aa5 983e
000003a0: 9dab 43bd d6af 88bd 2a78 8d3e cadc 623d
000003b0: f031 7ebd 69de 0c3e 1161 623c 28c5 5c3e
000003c0: 43a4 38be fc32 79be 2553 3dbe 4c97 85be
000003d0: 1a89 17bd 599b d43c 9319 e4ba 9d08 d13d
000003e0: c1df acbd bea6 7abd cb0a d0bd 023f 0abe
000003f0: b08a 52bc 6943 87be d5e9 62bd 59d6 423e
0.1267987 0.29338786 0.03626228 0.11983636 -0.16271202 0.008487046 -0.08917394 -0.0053772363
0.28288877 0.0828327 0.09578837 0.43183425 0.16136357 0.16758248 -0.078810856 0.18498786
0.20220435 -0.2053676 0.13020033 0.015789218 -0.11659136 -0.21943283 -0.065176375 -0.14502159
0.15067136 0.14773151 0.05819375 -0.026665248 0.10682835 0.025274538 -0.07836465 0.021792486
-0.006643437 0.15183651 0.02147136 0.022189368 0.10116737 -0.018999256 -0.14420345 -0.36563474
-0.20704675 0.0569461 -0.07475611 -0.012952713 -0.2031309 -0.09828571 0.17942463 -0.09297394
0.16941564 -0.10298103 -0.11163981 0.10130752 -0.054509047 -0.0822055 0.012428552 0.118333064
0.14242491 -0.01672469 0.0020044518 0.038108625 -0.043023784 0.15909179 -0.11004797 0.013764522
-0.10664492 -0.18852274 0.2158552 -0.05482801 -0.19545735 0.10550647 -0.09387172 -0.24956134
0.1128392 -0.016742691 -0.119292855 -0.09161722 0.028734528 -0.12781888 -0.13280383 -0.31611663
0.14303882 -0.16182438 -0.0044724247 -0.15750134 0.057099245 0.15634976 -0.12897114 0.21278986
0.10742522 -0.0060113296 -0.04907111 0.06297309 0.06328483 0.07726742 0.20872083 0.037228756
-0.09719279 0.07760022 0.21826808 0.0662443 0.16038658 -0.12986106 0.034782838 -0.20062222
0.014030683 0.07466212 -0.17128825 -0.011723552 0.0898861 -0.1859052 0.11990414 0.17620856
0.043254916 -0.04566332 -0.18107744 0.028859632 -0.055065785 -0.10500886 0.20882487 0.010791925
0.0283899 -0.01790404 -0.05074008 0.01015362 0.16422956 0.008655845 0.15963584 0.17647532
-0.2490032 0.18974231 0.12594983 -0.14369081 -0.14402366 0.097315244 -0.05951299 0.07933587
0.1332958 0.20062105 0.17603779 -0.07337047 0.023048028 0.15045719 0.20372747 -0.19235751
-0.14804615 0.19257253 0.18765993 -0.20459938 0.15655646 0.069024235 -0.14829585 0.0564811
-0.0024980307 -0.19577153 -0.06431057 -0.12161739 0.03759525 -0.082345 -0.07451956 0.08784523
-0.17064647 0.06421646 0.23675829 0.17775364 0.011454806 0.07158011 -0.28706083 0.21344821
-0.211044 -0.024010167 -0.10584453 0.060658507 0.106598094 -0.12763229 -0.18684296 -0.0132990815
0.19235235 0.41572377 0.023258619 0.058589034 -0.18464397 0.022614814 0.16603701 0.053840417
0.18382028 -0.27617696 -0.10518051 0.23724556 0.15594052 -0.030368496 -0.119548485 0.022949597
0.16011143 -0.06949208 -0.22154021 0.005745411 -0.1903591 0.23466563 -0.321078 -0.09611926
0.04705718 0.05756571 -0.004268937 -0.09534999 0.033666536 0.16091548 -0.03392486 0.1235649
0.10168896 0.002023235 0.13785502 0.115451984 -0.29645458 0.2053078 0.1298213 0.0025431165
-0.13027105 0.072944365 0.08980651 -0.16313666 0.093323134 0.17160745 0.060954027 0.15464528
-0.18228123 -0.072117664 0.068041354 -0.0413645 0.12150545 -0.15549412 -0.17564014 0.29813606
-0.047771085 -0.06674163 0.2763074 0.055386342 -0.062059343 0.13756718 0.013817088 0.21559584
-0.18031411 -0.24335855 -0.18488748 -0.26091993 -0.036995985 0.025952982 -0.0017402641 0.10206721
-0.08441115 -0.061194174 -0.101583086 -0.13500598 -0.0128504485 -0.26418617 -0.05539878 0.1902708

layers.2.bias f4 [20]
00000000: 91be bdbd 3d78 15bd 89bc 30be c137 30be
00000010: 831a fcbb a2f8 383e b74a cf3d 1fd9 5dbe
00000020: 1d6e 833b 178e c7bd bb1e 88bd 65f6 f9bc
00000030: b304 dfbd 3c3f bcbc 12f0 023e 3f9f ccbd
00000040: 4807 cfbc 5edf 113d b20f 5dbe 7d5e dd3d
-0.09264863 -0.03649162 -0.1725942 -0.17208768 -0.00769359 0.18063596 0.101216726 -0.21664856
0.0040109293 -0.09743898 -0.06646486 -0.030512998 -0.10889568 -0.022979371 0.12786892 -0.09991311
-0.025272027 0.03561341 -0.21588019 0.10809038

layers.3.weight f4 [2, 20]
00000000: 60d2 3f3e d9ee eb3e 28c5 22be 17bb bcbd
00000010: d2e8 32be 3797 11bf 043b 0f3e f4b4 343e
00000020: 1350 dd3d c843 5abe 5416 313e 1300 9fbe
00000030: b9ef a43e 004e c139 d85a 633e 5e30 75bd
00000040: b5ab d83e d2a5 a3be cbfb 2abf a1d6 493e
00000050: 8be6 b1be f8f7 0b3c 1ec1 14bd 487d 063e
00000060: e0e5 4e3c 987a 673e bf4c e1bd 2f74 a73d
00000070: 4c27 95be 6734 393e 0c62 543e aedb 443e
00000080: 080e 693e 6fcd b63e 91fc afbe b8f2 99bc
00000090: 74c5 94be 9b48 a23e 80c3 383e 1470 243e
0.18732595 0.46080664 -0.15895522 -0.09215372 -0.17471626 -0.5687136 0.13987356 0.17647153
0.108062886 -0.21314919 0.17293674 -0.31054744 0.32214144 0.00036869943 0.22202623 -0.05986058
0.42318502 -0.31962448 -0.66790456 0.1971078 -0.34746203 0.008543007 -0.036316983 0.13133729
0.012628049 0.2260536 -0.11000966 0.08176457 -0.29131544 0.18086396 0.20740527 0.19224426
0.22759259 0.35703608 -0.3437238 -0.018792495 -0.29056895 0.3169602 0.18043327 0.1605838

layers.3.bias f4 [2]
00000000: 6930 3fbe 5b5b 7b3d
-0.18670811 0.06136642
